{"format": "graph-model", "generatedBy": "2.18.0", "convertedBy": "TensorFlow.js Converter v4.22.0", "signature": {"inputs": {"inputs": {"name": "inputs:0", "dtype": "DT_FLOAT", "tensorShape": {"dim": [{"size": "-1"}, {"size": "224"}, {"size": "224"}, {"size": "1"}]}}}, "outputs": {"output_0": {"name": "Identity:0", "dtype": "DT_FLOAT", "tensorShape": {"dim": [{"size": "-1"}, {"size": "3"}]}}}}, "modelTopology": {"node": [{"name": "StatefulPartitionedCall/functional_6_1/resnet50_1/conv5_block1_0_conv_1/convolution/ReadVariableOp", "op": "Const", "attr": {"value": {"tensor": {"dtype": "DT_FLOAT", "tensorShape": {"dim": [{"size": "1"}, {"size": "1"}, {"size": "1024"}, {"size": "2048"}]}}}, "dtype": {"type": "DT_FLOAT"}}}, {"name": "StatefulPartitionedCall/functional_6_1/resnet50_1/conv5_block1_0_conv_1/Reshape", "op": "Const", "attr": {"value": {"tensor": {"dtype": "DT_FLOAT", "tensorShape": {"dim": [{"size": "1"}, {"size": "1"}, {"size": "1"}, {"size": "2048"}]}}}, "dtype": {"type": "DT_FLOAT"}}}, {"name": "StatefulPartitionedCall/functional_6_1/resnet50_1/conv5_block1_0_bn_1/batchnorm/mul", "op": "Const", "attr": {"value": {"tensor": {"dtype": "DT_FLOAT", "tensorShape": {"dim": [{"size": "1"}, {"size": "1"}, {"size": "1"}, {"size": "2048"}]}}}, "dtype": {"type": "DT_FLOAT"}}}, {"name": "StatefulPartitionedCall/functional_6_1/resnet50_1/conv5_block1_0_bn_1/batchnorm/sub", "op": "Const", "attr": {"value": {"tensor": {"dtype": "DT_FLOAT", "tensorShape": {"dim": [{"size": "1"}, {"size": "1"}, {"size": "1"}, {"size": "2048"}]}}}, "dtype": {"type": "DT_FLOAT"}}}, {"name": "StatefulPartitionedCall/functional_6_1/resnet50_1/conv4_block1_0_conv_1/convolution/ReadVariableOp", "op": "Const", "attr": {"value": {"tensor": {"dtype": "DT_FLOAT", "tensorShape": {"dim": [{"size": "1"}, {"size": "1"}, {"size": "512"}, {"size": "1024"}]}}}, "dtype": {"type": "DT_FLOAT"}}}, {"name": "StatefulPartitionedCall/functional_6_1/resnet50_1/conv4_block1_0_conv_1/Reshape", "op": "Const", "attr": {"value": {"tensor": {"dtype": "DT_FLOAT", "tensorShape": {"dim": [{"size": "1"}, {"size": "1"}, {"size": "1"}, {"size": "1024"}]}}}, "dtype": {"type": "DT_FLOAT"}}}, {"name": "StatefulPartitionedCall/functional_6_1/resnet50_1/conv4_block1_0_bn_1/batchnorm/mul", "op": "Const", "attr": {"value": {"tensor": {"dtype": "DT_FLOAT", "tensorShape": {"dim": [{"size": "1"}, {"size": "1"}, {"size": "1"}, {"size": "1024"}]}}}, "dtype": {"type": "DT_FLOAT"}}}, {"name": "StatefulPartitionedCall/functional_6_1/resnet50_1/conv4_block1_0_bn_1/batchnorm/sub", "op": "Const", "attr": {"value": {"tensor": {"dtype": "DT_FLOAT", "tensorShape": {"dim": [{"size": "1"}, {"size": "1"}, {"size": "1"}, {"size": "1024"}]}}}, "dtype": {"type": "DT_FLOAT"}}}, {"name": "StatefulPartitionedCall/functional_6_1/resnet50_1/conv3_block1_0_conv_1/convolution/ReadVariableOp", "op": "Const", "attr": {"value": {"tensor": {"dtype": "DT_FLOAT", "tensorShape": {"dim": [{"size": "1"}, {"size": "1"}, {"size": "256"}, {"size": "512"}]}}}, "dtype": {"type": "DT_FLOAT"}}}, {"name": "StatefulPartitionedCall/functional_6_1/resnet50_1/conv3_block1_0_conv_1/Reshape", "op": "Const", "attr": {"value": {"tensor": {"dtype": "DT_FLOAT", "tensorShape": {"dim": [{"size": "1"}, {"size": "1"}, {"size": "1"}, {"size": "512"}]}}}, "dtype": {"type": "DT_FLOAT"}}}, {"name": "StatefulPartitionedCall/functional_6_1/resnet50_1/conv3_block1_0_bn_1/batchnorm/mul", "op": "Const", "attr": {"value": {"tensor": {"dtype": "DT_FLOAT", "tensorShape": {"dim": [{"size": "1"}, {"size": "1"}, {"size": "1"}, {"size": "512"}]}}}, "dtype": {"type": "DT_FLOAT"}}}, {"name": "StatefulPartitionedCall/functional_6_1/resnet50_1/conv3_block1_0_bn_1/batchnorm/sub", "op": "Const", "attr": {"value": {"tensor": {"dtype": "DT_FLOAT", "tensorShape": {"dim": [{"size": "1"}, {"size": "1"}, {"size": "1"}, {"size": "512"}]}}}, "dtype": {"type": "DT_FLOAT"}}}, {"name": "StatefulPartitionedCall/functional_6_1/resnet50_1/conv2_block1_0_conv_1/convolution/ReadVariableOp", "op": "Const", "attr": {"value": {"tensor": {"dtype": "DT_FLOAT", "tensorShape": {"dim": [{"size": "1"}, {"size": "1"}, {"size": "64"}, {"size": "256"}]}}}, "dtype": {"type": "DT_FLOAT"}}}, {"name": "StatefulPartitionedCall/functional_6_1/resnet50_1/conv2_block1_0_conv_1/Reshape", "op": "Const", "attr": {"value": {"tensor": {"dtype": "DT_FLOAT", "tensorShape": {"dim": [{"size": "1"}, {"size": "1"}, {"size": "1"}, {"size": "256"}]}}}, "dtype": {"type": "DT_FLOAT"}}}, {"name": "StatefulPartitionedCall/functional_6_1/resnet50_1/conv2_block1_0_bn_1/batchnorm/mul", "op": "Const", "attr": {"value": {"tensor": {"dtype": "DT_FLOAT", "tensorShape": {"dim": [{"size": "1"}, {"size": "1"}, {"size": "1"}, {"size": "256"}]}}}, "dtype": {"type": "DT_FLOAT"}}}, {"name": "StatefulPartitionedCall/functional_6_1/resnet50_1/conv2_block1_0_bn_1/batchnorm/sub", "op": "Const", "attr": {"value": {"tensor": {"dtype": "DT_FLOAT", "tensorShape": {"dim": [{"size": "1"}, {"size": "1"}, {"size": "1"}, {"size": "256"}]}}}, "dtype": {"type": "DT_FLOAT"}}}, {"name": "StatefulPartitionedCall/functional_6_1/conv2d_6_1/convolution/ReadVariableOp", "op": "Const", "attr": {"value": {"tensor": {"dtype": "DT_FLOAT", "tensorShape": {"dim": [{"size": "3"}, {"size": "3"}, {"size": "1"}, {"size": "3"}]}}}, "dtype": {"type": "DT_FLOAT"}}}, {"name": "StatefulPartitionedCall/functional_6_1/conv2d_6_1/Reshape", "op": "Const", "attr": {"value": {"tensor": {"dtype": "DT_FLOAT", "tensorShape": {"dim": [{"size": "1"}, {"size": "1"}, {"size": "1"}, {"size": "3"}]}}}, "dtype": {"type": "DT_FLOAT"}}}, {"name": "StatefulPartitionedCall/functional_6_1/resnet50_1/conv1_pad_1/Const", "op": "Const", "attr": {"value": {"tensor": {"dtype": "DT_INT32", "tensorShape": {"dim": [{"size": "4"}, {"size": "2"}]}}}, "dtype": {"type": "DT_INT32"}}}, {"name": "StatefulPartitionedCall/functional_6_1/resnet50_1/conv1_conv_1/convolution/ReadVariableOp", "op": "Const", "attr": {"value": {"tensor": {"dtype": "DT_FLOAT", "tensorShape": {"dim": [{"size": "7"}, {"size": "7"}, {"size": "3"}, {"size": "64"}]}}}, "dtype": {"type": "DT_FLOAT"}}}, {"name": "StatefulPartitionedCall/functional_6_1/resnet50_1/conv1_conv_1/Reshape", "op": "Const", "attr": {"value": {"tensor": {"dtype": "DT_FLOAT", "tensorShape": {"dim": [{"size": "1"}, {"size": "1"}, {"size": "1"}, {"size": "64"}]}}}, "dtype": {"type": "DT_FLOAT"}}}, {"name": "StatefulPartitionedCall/functional_6_1/resnet50_1/conv1_bn_1/batchnorm/mul", "op": "Const", "attr": {"value": {"tensor": {"dtype": "DT_FLOAT", "tensorShape": {"dim": [{"size": "1"}, {"size": "1"}, {"size": "1"}, {"size": "64"}]}}}, "dtype": {"type": "DT_FLOAT"}}}, {"name": "StatefulPartitionedCall/functional_6_1/resnet50_1/conv1_bn_1/batchnorm/sub", "op": "Const", "attr": {"value": {"tensor": {"dtype": "DT_FLOAT", "tensorShape": {"dim": [{"size": "1"}, {"size": "1"}, {"size": "1"}, {"size": "64"}]}}}, "dtype": {"type": "DT_FLOAT"}}}, {"name": "StatefulPartitionedCall/functional_6_1/resnet50_1/pool1_pad_1/Const", "op": "Const", "attr": {"value": {"tensor": {"dtype": "DT_INT32", "tensorShape": {"dim": [{"size": "4"}, {"size": "2"}]}}}, "dtype": {"type": "DT_INT32"}}}, {"name": "StatefulPartitionedCall/functional_6_1/resnet50_1/conv2_block1_1_conv_1/convolution/ReadVariableOp", "op": "Const", "attr": {"value": {"tensor": {"dtype": "DT_FLOAT", "tensorShape": {"dim": [{"size": "1"}, {"size": "1"}, {"size": "64"}, {"size": "64"}]}}}, "dtype": {"type": "DT_FLOAT"}}}, {"name": "StatefulPartitionedCall/functional_6_1/resnet50_1/conv2_block1_1_conv_1/Reshape", "op": "Const", "attr": {"value": {"tensor": {"dtype": "DT_FLOAT", "tensorShape": {"dim": [{"size": "1"}, {"size": "1"}, {"size": "1"}, {"size": "64"}]}}}, "dtype": {"type": "DT_FLOAT"}}}, {"name": "StatefulPartitionedCall/functional_6_1/resnet50_1/conv2_block1_1_bn_1/batchnorm/mul", "op": "Const", "attr": {"value": {"tensor": {"dtype": "DT_FLOAT", "tensorShape": {"dim": [{"size": "1"}, {"size": "1"}, {"size": "1"}, {"size": "64"}]}}}, "dtype": {"type": "DT_FLOAT"}}}, {"name": "StatefulPartitionedCall/functional_6_1/resnet50_1/conv2_block1_1_bn_1/batchnorm/sub", "op": "Const", "attr": {"value": {"tensor": {"dtype": "DT_FLOAT", "tensorShape": {"dim": [{"size": "1"}, {"size": "1"}, {"size": "1"}, {"size": "64"}]}}}, "dtype": {"type": "DT_FLOAT"}}}, {"name": "StatefulPartitionedCall/functional_6_1/resnet50_1/conv2_block1_2_conv_1/convolution/ReadVariableOp", "op": "Const", "attr": {"value": {"tensor": {"dtype": "DT_FLOAT", "tensorShape": {"dim": [{"size": "3"}, {"size": "3"}, {"size": "64"}, {"size": "64"}]}}}, "dtype": {"type": "DT_FLOAT"}}}, {"name": "StatefulPartitionedCall/functional_6_1/resnet50_1/conv2_block1_2_conv_1/Reshape", "op": "Const", "attr": {"value": {"tensor": {"dtype": "DT_FLOAT", "tensorShape": {"dim": [{"size": "1"}, {"size": "1"}, {"size": "1"}, {"size": "64"}]}}}, "dtype": {"type": "DT_FLOAT"}}}, {"name": "StatefulPartitionedCall/functional_6_1/resnet50_1/conv2_block1_2_bn_1/batchnorm/mul", "op": "Const", "attr": {"value": {"tensor": {"dtype": "DT_FLOAT", "tensorShape": {"dim": [{"size": "1"}, {"size": "1"}, {"size": "1"}, {"size": "64"}]}}}, "dtype": {"type": "DT_FLOAT"}}}, {"name": "StatefulPartitionedCall/functional_6_1/resnet50_1/conv2_block1_2_bn_1/batchnorm/sub", "op": "Const", "attr": {"value": {"tensor": {"dtype": "DT_FLOAT", "tensorShape": {"dim": [{"size": "1"}, {"size": "1"}, {"size": "1"}, {"size": "64"}]}}}, "dtype": {"type": "DT_FLOAT"}}}, {"name": "StatefulPartitionedCall/functional_6_1/resnet50_1/conv2_block1_3_conv_1/convolution/ReadVariableOp", "op": "Const", "attr": {"value": {"tensor": {"dtype": "DT_FLOAT", "tensorShape": {"dim": [{"size": "1"}, {"size": "1"}, {"size": "64"}, {"size": "256"}]}}}, "dtype": {"type": "DT_FLOAT"}}}, {"name": "StatefulPartitionedCall/functional_6_1/resnet50_1/conv2_block1_3_conv_1/Reshape", "op": "Const", "attr": {"value": {"tensor": {"dtype": "DT_FLOAT", "tensorShape": {"dim": [{"size": "1"}, {"size": "1"}, {"size": "1"}, {"size": "256"}]}}}, "dtype": {"type": "DT_FLOAT"}}}, {"name": "StatefulPartitionedCall/functional_6_1/resnet50_1/conv2_block1_3_bn_1/batchnorm/mul", "op": "Const", "attr": {"value": {"tensor": {"dtype": "DT_FLOAT", "tensorShape": {"dim": [{"size": "1"}, {"size": "1"}, {"size": "1"}, {"size": "256"}]}}}, "dtype": {"type": "DT_FLOAT"}}}, {"name": "StatefulPartitionedCall/functional_6_1/resnet50_1/conv2_block1_3_bn_1/batchnorm/sub", "op": "Const", "attr": {"value": {"tensor": {"dtype": "DT_FLOAT", "tensorShape": {"dim": [{"size": "1"}, {"size": "1"}, {"size": "1"}, {"size": "256"}]}}}, "dtype": {"type": "DT_FLOAT"}}}, {"name": "StatefulPartitionedCall/functional_6_1/resnet50_1/conv2_block2_1_conv_1/convolution/ReadVariableOp", "op": "Const", "attr": {"value": {"tensor": {"dtype": "DT_FLOAT", "tensorShape": {"dim": [{"size": "1"}, {"size": "1"}, {"size": "256"}, {"size": "64"}]}}}, "dtype": {"type": "DT_FLOAT"}}}, {"name": "StatefulPartitionedCall/functional_6_1/resnet50_1/conv2_block2_1_conv_1/Reshape", "op": "Const", "attr": {"value": {"tensor": {"dtype": "DT_FLOAT", "tensorShape": {"dim": [{"size": "1"}, {"size": "1"}, {"size": "1"}, {"size": "64"}]}}}, "dtype": {"type": "DT_FLOAT"}}}, {"name": "StatefulPartitionedCall/functional_6_1/resnet50_1/conv2_block2_1_bn_1/batchnorm/mul", "op": "Const", "attr": {"value": {"tensor": {"dtype": "DT_FLOAT", "tensorShape": {"dim": [{"size": "1"}, {"size": "1"}, {"size": "1"}, {"size": "64"}]}}}, "dtype": {"type": "DT_FLOAT"}}}, {"name": "StatefulPartitionedCall/functional_6_1/resnet50_1/conv2_block2_1_bn_1/batchnorm/sub", "op": "Const", "attr": {"value": {"tensor": {"dtype": "DT_FLOAT", "tensorShape": {"dim": [{"size": "1"}, {"size": "1"}, {"size": "1"}, {"size": "64"}]}}}, "dtype": {"type": "DT_FLOAT"}}}, {"name": "StatefulPartitionedCall/functional_6_1/resnet50_1/conv2_block2_2_conv_1/convolution/ReadVariableOp", "op": "Const", "attr": {"value": {"tensor": {"dtype": "DT_FLOAT", "tensorShape": {"dim": [{"size": "3"}, {"size": "3"}, {"size": "64"}, {"size": "64"}]}}}, "dtype": {"type": "DT_FLOAT"}}}, {"name": "StatefulPartitionedCall/functional_6_1/resnet50_1/conv2_block2_2_conv_1/Reshape", "op": "Const", "attr": {"value": {"tensor": {"dtype": "DT_FLOAT", "tensorShape": {"dim": [{"size": "1"}, {"size": "1"}, {"size": "1"}, {"size": "64"}]}}}, "dtype": {"type": "DT_FLOAT"}}}, {"name": "StatefulPartitionedCall/functional_6_1/resnet50_1/conv2_block2_2_bn_1/batchnorm/mul", "op": "Const", "attr": {"value": {"tensor": {"dtype": "DT_FLOAT", "tensorShape": {"dim": [{"size": "1"}, {"size": "1"}, {"size": "1"}, {"size": "64"}]}}}, "dtype": {"type": "DT_FLOAT"}}}, {"name": "StatefulPartitionedCall/functional_6_1/resnet50_1/conv2_block2_2_bn_1/batchnorm/sub", "op": "Const", "attr": {"value": {"tensor": {"dtype": "DT_FLOAT", "tensorShape": {"dim": [{"size": "1"}, {"size": "1"}, {"size": "1"}, {"size": "64"}]}}}, "dtype": {"type": "DT_FLOAT"}}}, {"name": "StatefulPartitionedCall/functional_6_1/resnet50_1/conv2_block2_3_conv_1/convolution/ReadVariableOp", "op": "Const", "attr": {"value": {"tensor": {"dtype": "DT_FLOAT", "tensorShape": {"dim": [{"size": "1"}, {"size": "1"}, {"size": "64"}, {"size": "256"}]}}}, "dtype": {"type": "DT_FLOAT"}}}, {"name": "StatefulPartitionedCall/functional_6_1/resnet50_1/conv2_block2_3_conv_1/Reshape", "op": "Const", "attr": {"value": {"tensor": {"dtype": "DT_FLOAT", "tensorShape": {"dim": [{"size": "1"}, {"size": "1"}, {"size": "1"}, {"size": "256"}]}}}, "dtype": {"type": "DT_FLOAT"}}}, {"name": "StatefulPartitionedCall/functional_6_1/resnet50_1/conv2_block2_3_bn_1/batchnorm/mul", "op": "Const", "attr": {"value": {"tensor": {"dtype": "DT_FLOAT", "tensorShape": {"dim": [{"size": "1"}, {"size": "1"}, {"size": "1"}, {"size": "256"}]}}}, "dtype": {"type": "DT_FLOAT"}}}, {"name": "StatefulPartitionedCall/functional_6_1/resnet50_1/conv2_block2_3_bn_1/batchnorm/sub", "op": "Const", "attr": {"value": {"tensor": {"dtype": "DT_FLOAT", "tensorShape": {"dim": [{"size": "1"}, {"size": "1"}, {"size": "1"}, {"size": "256"}]}}}, "dtype": {"type": "DT_FLOAT"}}}, {"name": "StatefulPartitionedCall/functional_6_1/resnet50_1/conv2_block3_1_conv_1/convolution/ReadVariableOp", "op": "Const", "attr": {"value": {"tensor": {"dtype": "DT_FLOAT", "tensorShape": {"dim": [{"size": "1"}, {"size": "1"}, {"size": "256"}, {"size": "64"}]}}}, "dtype": {"type": "DT_FLOAT"}}}, {"name": "StatefulPartitionedCall/functional_6_1/resnet50_1/conv2_block3_1_conv_1/Reshape", "op": "Const", "attr": {"value": {"tensor": {"dtype": "DT_FLOAT", "tensorShape": {"dim": [{"size": "1"}, {"size": "1"}, {"size": "1"}, {"size": "64"}]}}}, "dtype": {"type": "DT_FLOAT"}}}, {"name": "StatefulPartitionedCall/functional_6_1/resnet50_1/conv2_block3_1_bn_1/batchnorm/mul", "op": "Const", "attr": {"value": {"tensor": {"dtype": "DT_FLOAT", "tensorShape": {"dim": [{"size": "1"}, {"size": "1"}, {"size": "1"}, {"size": "64"}]}}}, "dtype": {"type": "DT_FLOAT"}}}, {"name": "StatefulPartitionedCall/functional_6_1/resnet50_1/conv2_block3_1_bn_1/batchnorm/sub", "op": "Const", "attr": {"value": {"tensor": {"dtype": "DT_FLOAT", "tensorShape": {"dim": [{"size": "1"}, {"size": "1"}, {"size": "1"}, {"size": "64"}]}}}, "dtype": {"type": "DT_FLOAT"}}}, {"name": "StatefulPartitionedCall/functional_6_1/resnet50_1/conv2_block3_2_conv_1/convolution/ReadVariableOp", "op": "Const", "attr": {"value": {"tensor": {"dtype": "DT_FLOAT", "tensorShape": {"dim": [{"size": "3"}, {"size": "3"}, {"size": "64"}, {"size": "64"}]}}}, "dtype": {"type": "DT_FLOAT"}}}, {"name": "StatefulPartitionedCall/functional_6_1/resnet50_1/conv2_block3_2_conv_1/Reshape", "op": "Const", "attr": {"value": {"tensor": {"dtype": "DT_FLOAT", "tensorShape": {"dim": [{"size": "1"}, {"size": "1"}, {"size": "1"}, {"size": "64"}]}}}, "dtype": {"type": "DT_FLOAT"}}}, {"name": "StatefulPartitionedCall/functional_6_1/resnet50_1/conv2_block3_2_bn_1/batchnorm/mul", "op": "Const", "attr": {"value": {"tensor": {"dtype": "DT_FLOAT", "tensorShape": {"dim": [{"size": "1"}, {"size": "1"}, {"size": "1"}, {"size": "64"}]}}}, "dtype": {"type": "DT_FLOAT"}}}, {"name": "StatefulPartitionedCall/functional_6_1/resnet50_1/conv2_block3_2_bn_1/batchnorm/sub", "op": "Const", "attr": {"value": {"tensor": {"dtype": "DT_FLOAT", "tensorShape": {"dim": [{"size": "1"}, {"size": "1"}, {"size": "1"}, {"size": "64"}]}}}, "dtype": {"type": "DT_FLOAT"}}}, {"name": "StatefulPartitionedCall/functional_6_1/resnet50_1/conv2_block3_3_conv_1/convolution/ReadVariableOp", "op": "Const", "attr": {"value": {"tensor": {"dtype": "DT_FLOAT", "tensorShape": {"dim": [{"size": "1"}, {"size": "1"}, {"size": "64"}, {"size": "256"}]}}}, "dtype": {"type": "DT_FLOAT"}}}, {"name": "StatefulPartitionedCall/functional_6_1/resnet50_1/conv2_block3_3_conv_1/Reshape", "op": "Const", "attr": {"value": {"tensor": {"dtype": "DT_FLOAT", "tensorShape": {"dim": [{"size": "1"}, {"size": "1"}, {"size": "1"}, {"size": "256"}]}}}, "dtype": {"type": "DT_FLOAT"}}}, {"name": "StatefulPartitionedCall/functional_6_1/resnet50_1/conv2_block3_3_bn_1/batchnorm/mul", "op": "Const", "attr": {"value": {"tensor": {"dtype": "DT_FLOAT", "tensorShape": {"dim": [{"size": "1"}, {"size": "1"}, {"size": "1"}, {"size": "256"}]}}}, "dtype": {"type": "DT_FLOAT"}}}, {"name": "StatefulPartitionedCall/functional_6_1/resnet50_1/conv2_block3_3_bn_1/batchnorm/sub", "op": "Const", "attr": {"value": {"tensor": {"dtype": "DT_FLOAT", "tensorShape": {"dim": [{"size": "1"}, {"size": "1"}, {"size": "1"}, {"size": "256"}]}}}, "dtype": {"type": "DT_FLOAT"}}}, {"name": "StatefulPartitionedCall/functional_6_1/resnet50_1/conv3_block1_1_conv_1/convolution/ReadVariableOp", "op": "Const", "attr": {"value": {"tensor": {"dtype": "DT_FLOAT", "tensorShape": {"dim": [{"size": "1"}, {"size": "1"}, {"size": "256"}, {"size": "128"}]}}}, "dtype": {"type": "DT_FLOAT"}}}, {"name": "StatefulPartitionedCall/functional_6_1/resnet50_1/conv3_block1_1_conv_1/Reshape", "op": "Const", "attr": {"value": {"tensor": {"dtype": "DT_FLOAT", "tensorShape": {"dim": [{"size": "1"}, {"size": "1"}, {"size": "1"}, {"size": "128"}]}}}, "dtype": {"type": "DT_FLOAT"}}}, {"name": "StatefulPartitionedCall/functional_6_1/resnet50_1/conv3_block1_1_bn_1/batchnorm/mul", "op": "Const", "attr": {"value": {"tensor": {"dtype": "DT_FLOAT", "tensorShape": {"dim": [{"size": "1"}, {"size": "1"}, {"size": "1"}, {"size": "128"}]}}}, "dtype": {"type": "DT_FLOAT"}}}, {"name": "StatefulPartitionedCall/functional_6_1/resnet50_1/conv3_block1_1_bn_1/batchnorm/sub", "op": "Const", "attr": {"value": {"tensor": {"dtype": "DT_FLOAT", "tensorShape": {"dim": [{"size": "1"}, {"size": "1"}, {"size": "1"}, {"size": "128"}]}}}, "dtype": {"type": "DT_FLOAT"}}}, {"name": "StatefulPartitionedCall/functional_6_1/resnet50_1/conv3_block1_2_conv_1/convolution/ReadVariableOp", "op": "Const", "attr": {"value": {"tensor": {"dtype": "DT_FLOAT", "tensorShape": {"dim": [{"size": "3"}, {"size": "3"}, {"size": "128"}, {"size": "128"}]}}}, "dtype": {"type": "DT_FLOAT"}}}, {"name": "StatefulPartitionedCall/functional_6_1/resnet50_1/conv3_block1_2_conv_1/Reshape", "op": "Const", "attr": {"value": {"tensor": {"dtype": "DT_FLOAT", "tensorShape": {"dim": [{"size": "1"}, {"size": "1"}, {"size": "1"}, {"size": "128"}]}}}, "dtype": {"type": "DT_FLOAT"}}}, {"name": "StatefulPartitionedCall/functional_6_1/resnet50_1/conv3_block1_2_bn_1/batchnorm/mul", "op": "Const", "attr": {"value": {"tensor": {"dtype": "DT_FLOAT", "tensorShape": {"dim": [{"size": "1"}, {"size": "1"}, {"size": "1"}, {"size": "128"}]}}}, "dtype": {"type": "DT_FLOAT"}}}, {"name": "StatefulPartitionedCall/functional_6_1/resnet50_1/conv3_block1_2_bn_1/batchnorm/sub", "op": "Const", "attr": {"value": {"tensor": {"dtype": "DT_FLOAT", "tensorShape": {"dim": [{"size": "1"}, {"size": "1"}, {"size": "1"}, {"size": "128"}]}}}, "dtype": {"type": "DT_FLOAT"}}}, {"name": "StatefulPartitionedCall/functional_6_1/resnet50_1/conv3_block1_3_conv_1/convolution/ReadVariableOp", "op": "Const", "attr": {"value": {"tensor": {"dtype": "DT_FLOAT", "tensorShape": {"dim": [{"size": "1"}, {"size": "1"}, {"size": "128"}, {"size": "512"}]}}}, "dtype": {"type": "DT_FLOAT"}}}, {"name": "StatefulPartitionedCall/functional_6_1/resnet50_1/conv3_block1_3_conv_1/Reshape", "op": "Const", "attr": {"value": {"tensor": {"dtype": "DT_FLOAT", "tensorShape": {"dim": [{"size": "1"}, {"size": "1"}, {"size": "1"}, {"size": "512"}]}}}, "dtype": {"type": "DT_FLOAT"}}}, {"name": "StatefulPartitionedCall/functional_6_1/resnet50_1/conv3_block1_3_bn_1/batchnorm/mul", "op": "Const", "attr": {"value": {"tensor": {"dtype": "DT_FLOAT", "tensorShape": {"dim": [{"size": "1"}, {"size": "1"}, {"size": "1"}, {"size": "512"}]}}}, "dtype": {"type": "DT_FLOAT"}}}, {"name": "StatefulPartitionedCall/functional_6_1/resnet50_1/conv3_block1_3_bn_1/batchnorm/sub", "op": "Const", "attr": {"value": {"tensor": {"dtype": "DT_FLOAT", "tensorShape": {"dim": [{"size": "1"}, {"size": "1"}, {"size": "1"}, {"size": "512"}]}}}, "dtype": {"type": "DT_FLOAT"}}}, {"name": "StatefulPartitionedCall/functional_6_1/resnet50_1/conv3_block2_1_conv_1/convolution/ReadVariableOp", "op": "Const", "attr": {"value": {"tensor": {"dtype": "DT_FLOAT", "tensorShape": {"dim": [{"size": "1"}, {"size": "1"}, {"size": "512"}, {"size": "128"}]}}}, "dtype": {"type": "DT_FLOAT"}}}, {"name": "StatefulPartitionedCall/functional_6_1/resnet50_1/conv3_block2_1_conv_1/Reshape", "op": "Const", "attr": {"value": {"tensor": {"dtype": "DT_FLOAT", "tensorShape": {"dim": [{"size": "1"}, {"size": "1"}, {"size": "1"}, {"size": "128"}]}}}, "dtype": {"type": "DT_FLOAT"}}}, {"name": "StatefulPartitionedCall/functional_6_1/resnet50_1/conv3_block2_1_bn_1/batchnorm/mul", "op": "Const", "attr": {"value": {"tensor": {"dtype": "DT_FLOAT", "tensorShape": {"dim": [{"size": "1"}, {"size": "1"}, {"size": "1"}, {"size": "128"}]}}}, "dtype": {"type": "DT_FLOAT"}}}, {"name": "StatefulPartitionedCall/functional_6_1/resnet50_1/conv3_block2_1_bn_1/batchnorm/sub", "op": "Const", "attr": {"value": {"tensor": {"dtype": "DT_FLOAT", "tensorShape": {"dim": [{"size": "1"}, {"size": "1"}, {"size": "1"}, {"size": "128"}]}}}, "dtype": {"type": "DT_FLOAT"}}}, {"name": "StatefulPartitionedCall/functional_6_1/resnet50_1/conv3_block2_2_conv_1/convolution/ReadVariableOp", "op": "Const", "attr": {"value": {"tensor": {"dtype": "DT_FLOAT", "tensorShape": {"dim": [{"size": "3"}, {"size": "3"}, {"size": "128"}, {"size": "128"}]}}}, "dtype": {"type": "DT_FLOAT"}}}, {"name": "StatefulPartitionedCall/functional_6_1/resnet50_1/conv3_block2_2_conv_1/Reshape", "op": "Const", "attr": {"value": {"tensor": {"dtype": "DT_FLOAT", "tensorShape": {"dim": [{"size": "1"}, {"size": "1"}, {"size": "1"}, {"size": "128"}]}}}, "dtype": {"type": "DT_FLOAT"}}}, {"name": "StatefulPartitionedCall/functional_6_1/resnet50_1/conv3_block2_2_bn_1/batchnorm/mul", "op": "Const", "attr": {"value": {"tensor": {"dtype": "DT_FLOAT", "tensorShape": {"dim": [{"size": "1"}, {"size": "1"}, {"size": "1"}, {"size": "128"}]}}}, "dtype": {"type": "DT_FLOAT"}}}, {"name": "StatefulPartitionedCall/functional_6_1/resnet50_1/conv3_block2_2_bn_1/batchnorm/sub", "op": "Const", "attr": {"value": {"tensor": {"dtype": "DT_FLOAT", "tensorShape": {"dim": [{"size": "1"}, {"size": "1"}, {"size": "1"}, {"size": "128"}]}}}, "dtype": {"type": "DT_FLOAT"}}}, {"name": "StatefulPartitionedCall/functional_6_1/resnet50_1/conv3_block2_3_conv_1/convolution/ReadVariableOp", "op": "Const", "attr": {"value": {"tensor": {"dtype": "DT_FLOAT", "tensorShape": {"dim": [{"size": "1"}, {"size": "1"}, {"size": "128"}, {"size": "512"}]}}}, "dtype": {"type": "DT_FLOAT"}}}, {"name": "StatefulPartitionedCall/functional_6_1/resnet50_1/conv3_block2_3_conv_1/Reshape", "op": "Const", "attr": {"value": {"tensor": {"dtype": "DT_FLOAT", "tensorShape": {"dim": [{"size": "1"}, {"size": "1"}, {"size": "1"}, {"size": "512"}]}}}, "dtype": {"type": "DT_FLOAT"}}}, {"name": "StatefulPartitionedCall/functional_6_1/resnet50_1/conv3_block2_3_bn_1/batchnorm/mul", "op": "Const", "attr": {"value": {"tensor": {"dtype": "DT_FLOAT", "tensorShape": {"dim": [{"size": "1"}, {"size": "1"}, {"size": "1"}, {"size": "512"}]}}}, "dtype": {"type": "DT_FLOAT"}}}, {"name": "StatefulPartitionedCall/functional_6_1/resnet50_1/conv3_block2_3_bn_1/batchnorm/sub", "op": "Const", "attr": {"value": {"tensor": {"dtype": "DT_FLOAT", "tensorShape": {"dim": [{"size": "1"}, {"size": "1"}, {"size": "1"}, {"size": "512"}]}}}, "dtype": {"type": "DT_FLOAT"}}}, {"name": "StatefulPartitionedCall/functional_6_1/resnet50_1/conv3_block3_1_conv_1/convolution/ReadVariableOp", "op": "Const", "attr": {"value": {"tensor": {"dtype": "DT_FLOAT", "tensorShape": {"dim": [{"size": "1"}, {"size": "1"}, {"size": "512"}, {"size": "128"}]}}}, "dtype": {"type": "DT_FLOAT"}}}, {"name": "StatefulPartitionedCall/functional_6_1/resnet50_1/conv3_block3_1_conv_1/Reshape", "op": "Const", "attr": {"value": {"tensor": {"dtype": "DT_FLOAT", "tensorShape": {"dim": [{"size": "1"}, {"size": "1"}, {"size": "1"}, {"size": "128"}]}}}, "dtype": {"type": "DT_FLOAT"}}}, {"name": "StatefulPartitionedCall/functional_6_1/resnet50_1/conv3_block3_1_bn_1/batchnorm/mul", "op": "Const", "attr": {"value": {"tensor": {"dtype": "DT_FLOAT", "tensorShape": {"dim": [{"size": "1"}, {"size": "1"}, {"size": "1"}, {"size": "128"}]}}}, "dtype": {"type": "DT_FLOAT"}}}, {"name": "StatefulPartitionedCall/functional_6_1/resnet50_1/conv3_block3_1_bn_1/batchnorm/sub", "op": "Const", "attr": {"value": {"tensor": {"dtype": "DT_FLOAT", "tensorShape": {"dim": [{"size": "1"}, {"size": "1"}, {"size": "1"}, {"size": "128"}]}}}, "dtype": {"type": "DT_FLOAT"}}}, {"name": "StatefulPartitionedCall/functional_6_1/resnet50_1/conv3_block3_2_conv_1/convolution/ReadVariableOp", "op": "Const", "attr": {"value": {"tensor": {"dtype": "DT_FLOAT", "tensorShape": {"dim": [{"size": "3"}, {"size": "3"}, {"size": "128"}, {"size": "128"}]}}}, "dtype": {"type": "DT_FLOAT"}}}, {"name": "StatefulPartitionedCall/functional_6_1/resnet50_1/conv3_block3_2_conv_1/Reshape", "op": "Const", "attr": {"value": {"tensor": {"dtype": "DT_FLOAT", "tensorShape": {"dim": [{"size": "1"}, {"size": "1"}, {"size": "1"}, {"size": "128"}]}}}, "dtype": {"type": "DT_FLOAT"}}}, {"name": "StatefulPartitionedCall/functional_6_1/resnet50_1/conv3_block3_2_bn_1/batchnorm/mul", "op": "Const", "attr": {"value": {"tensor": {"dtype": "DT_FLOAT", "tensorShape": {"dim": [{"size": "1"}, {"size": "1"}, {"size": "1"}, {"size": "128"}]}}}, "dtype": {"type": "DT_FLOAT"}}}, {"name": "StatefulPartitionedCall/functional_6_1/resnet50_1/conv3_block3_2_bn_1/batchnorm/sub", "op": "Const", "attr": {"value": {"tensor": {"dtype": "DT_FLOAT", "tensorShape": {"dim": [{"size": "1"}, {"size": "1"}, {"size": "1"}, {"size": "128"}]}}}, "dtype": {"type": "DT_FLOAT"}}}, {"name": "StatefulPartitionedCall/functional_6_1/resnet50_1/conv3_block3_3_conv_1/convolution/ReadVariableOp", "op": "Const", "attr": {"value": {"tensor": {"dtype": "DT_FLOAT", "tensorShape": {"dim": [{"size": "1"}, {"size": "1"}, {"size": "128"}, {"size": "512"}]}}}, "dtype": {"type": "DT_FLOAT"}}}, {"name": "StatefulPartitionedCall/functional_6_1/resnet50_1/conv3_block3_3_conv_1/Reshape", "op": "Const", "attr": {"value": {"tensor": {"dtype": "DT_FLOAT", "tensorShape": {"dim": [{"size": "1"}, {"size": "1"}, {"size": "1"}, {"size": "512"}]}}}, "dtype": {"type": "DT_FLOAT"}}}, {"name": "StatefulPartitionedCall/functional_6_1/resnet50_1/conv3_block3_3_bn_1/batchnorm/mul", "op": "Const", "attr": {"value": {"tensor": {"dtype": "DT_FLOAT", "tensorShape": {"dim": [{"size": "1"}, {"size": "1"}, {"size": "1"}, {"size": "512"}]}}}, "dtype": {"type": "DT_FLOAT"}}}, {"name": "StatefulPartitionedCall/functional_6_1/resnet50_1/conv3_block3_3_bn_1/batchnorm/sub", "op": "Const", "attr": {"value": {"tensor": {"dtype": "DT_FLOAT", "tensorShape": {"dim": [{"size": "1"}, {"size": "1"}, {"size": "1"}, {"size": "512"}]}}}, "dtype": {"type": "DT_FLOAT"}}}, {"name": "StatefulPartitionedCall/functional_6_1/resnet50_1/conv3_block4_1_conv_1/convolution/ReadVariableOp", "op": "Const", "attr": {"value": {"tensor": {"dtype": "DT_FLOAT", "tensorShape": {"dim": [{"size": "1"}, {"size": "1"}, {"size": "512"}, {"size": "128"}]}}}, "dtype": {"type": "DT_FLOAT"}}}, {"name": "StatefulPartitionedCall/functional_6_1/resnet50_1/conv3_block4_1_conv_1/Reshape", "op": "Const", "attr": {"value": {"tensor": {"dtype": "DT_FLOAT", "tensorShape": {"dim": [{"size": "1"}, {"size": "1"}, {"size": "1"}, {"size": "128"}]}}}, "dtype": {"type": "DT_FLOAT"}}}, {"name": "StatefulPartitionedCall/functional_6_1/resnet50_1/conv3_block4_1_bn_1/batchnorm/mul", "op": "Const", "attr": {"value": {"tensor": {"dtype": "DT_FLOAT", "tensorShape": {"dim": [{"size": "1"}, {"size": "1"}, {"size": "1"}, {"size": "128"}]}}}, "dtype": {"type": "DT_FLOAT"}}}, {"name": "StatefulPartitionedCall/functional_6_1/resnet50_1/conv3_block4_1_bn_1/batchnorm/sub", "op": "Const", "attr": {"value": {"tensor": {"dtype": "DT_FLOAT", "tensorShape": {"dim": [{"size": "1"}, {"size": "1"}, {"size": "1"}, {"size": "128"}]}}}, "dtype": {"type": "DT_FLOAT"}}}, {"name": "StatefulPartitionedCall/functional_6_1/resnet50_1/conv3_block4_2_conv_1/convolution/ReadVariableOp", "op": "Const", "attr": {"value": {"tensor": {"dtype": "DT_FLOAT", "tensorShape": {"dim": [{"size": "3"}, {"size": "3"}, {"size": "128"}, {"size": "128"}]}}}, "dtype": {"type": "DT_FLOAT"}}}, {"name": "StatefulPartitionedCall/functional_6_1/resnet50_1/conv3_block4_2_conv_1/Reshape", "op": "Const", "attr": {"value": {"tensor": {"dtype": "DT_FLOAT", "tensorShape": {"dim": [{"size": "1"}, {"size": "1"}, {"size": "1"}, {"size": "128"}]}}}, "dtype": {"type": "DT_FLOAT"}}}, {"name": "StatefulPartitionedCall/functional_6_1/resnet50_1/conv3_block4_2_bn_1/batchnorm/mul", "op": "Const", "attr": {"value": {"tensor": {"dtype": "DT_FLOAT", "tensorShape": {"dim": [{"size": "1"}, {"size": "1"}, {"size": "1"}, {"size": "128"}]}}}, "dtype": {"type": "DT_FLOAT"}}}, {"name": "StatefulPartitionedCall/functional_6_1/resnet50_1/conv3_block4_2_bn_1/batchnorm/sub", "op": "Const", "attr": {"value": {"tensor": {"dtype": "DT_FLOAT", "tensorShape": {"dim": [{"size": "1"}, {"size": "1"}, {"size": "1"}, {"size": "128"}]}}}, "dtype": {"type": "DT_FLOAT"}}}, {"name": "StatefulPartitionedCall/functional_6_1/resnet50_1/conv3_block4_3_conv_1/convolution/ReadVariableOp", "op": "Const", "attr": {"value": {"tensor": {"dtype": "DT_FLOAT", "tensorShape": {"dim": [{"size": "1"}, {"size": "1"}, {"size": "128"}, {"size": "512"}]}}}, "dtype": {"type": "DT_FLOAT"}}}, {"name": "StatefulPartitionedCall/functional_6_1/resnet50_1/conv3_block4_3_conv_1/Reshape", "op": "Const", "attr": {"value": {"tensor": {"dtype": "DT_FLOAT", "tensorShape": {"dim": [{"size": "1"}, {"size": "1"}, {"size": "1"}, {"size": "512"}]}}}, "dtype": {"type": "DT_FLOAT"}}}, {"name": "StatefulPartitionedCall/functional_6_1/resnet50_1/conv3_block4_3_bn_1/batchnorm/mul", "op": "Const", "attr": {"value": {"tensor": {"dtype": "DT_FLOAT", "tensorShape": {"dim": [{"size": "1"}, {"size": "1"}, {"size": "1"}, {"size": "512"}]}}}, "dtype": {"type": "DT_FLOAT"}}}, {"name": "StatefulPartitionedCall/functional_6_1/resnet50_1/conv3_block4_3_bn_1/batchnorm/sub", "op": "Const", "attr": {"value": {"tensor": {"dtype": "DT_FLOAT", "tensorShape": {"dim": [{"size": "1"}, {"size": "1"}, {"size": "1"}, {"size": "512"}]}}}, "dtype": {"type": "DT_FLOAT"}}}, {"name": "StatefulPartitionedCall/functional_6_1/resnet50_1/conv4_block1_1_conv_1/convolution/ReadVariableOp", "op": "Const", "attr": {"value": {"tensor": {"dtype": "DT_FLOAT", "tensorShape": {"dim": [{"size": "1"}, {"size": "1"}, {"size": "512"}, {"size": "256"}]}}}, "dtype": {"type": "DT_FLOAT"}}}, {"name": "StatefulPartitionedCall/functional_6_1/resnet50_1/conv4_block1_1_conv_1/Reshape", "op": "Const", "attr": {"value": {"tensor": {"dtype": "DT_FLOAT", "tensorShape": {"dim": [{"size": "1"}, {"size": "1"}, {"size": "1"}, {"size": "256"}]}}}, "dtype": {"type": "DT_FLOAT"}}}, {"name": "StatefulPartitionedCall/functional_6_1/resnet50_1/conv4_block1_1_bn_1/batchnorm/mul", "op": "Const", "attr": {"value": {"tensor": {"dtype": "DT_FLOAT", "tensorShape": {"dim": [{"size": "1"}, {"size": "1"}, {"size": "1"}, {"size": "256"}]}}}, "dtype": {"type": "DT_FLOAT"}}}, {"name": "StatefulPartitionedCall/functional_6_1/resnet50_1/conv4_block1_1_bn_1/batchnorm/sub", "op": "Const", "attr": {"value": {"tensor": {"dtype": "DT_FLOAT", "tensorShape": {"dim": [{"size": "1"}, {"size": "1"}, {"size": "1"}, {"size": "256"}]}}}, "dtype": {"type": "DT_FLOAT"}}}, {"name": "StatefulPartitionedCall/functional_6_1/resnet50_1/conv4_block1_2_conv_1/convolution/ReadVariableOp", "op": "Const", "attr": {"value": {"tensor": {"dtype": "DT_FLOAT", "tensorShape": {"dim": [{"size": "3"}, {"size": "3"}, {"size": "256"}, {"size": "256"}]}}}, "dtype": {"type": "DT_FLOAT"}}}, {"name": "StatefulPartitionedCall/functional_6_1/resnet50_1/conv4_block1_2_conv_1/Reshape", "op": "Const", "attr": {"value": {"tensor": {"dtype": "DT_FLOAT", "tensorShape": {"dim": [{"size": "1"}, {"size": "1"}, {"size": "1"}, {"size": "256"}]}}}, "dtype": {"type": "DT_FLOAT"}}}, {"name": "StatefulPartitionedCall/functional_6_1/resnet50_1/conv4_block1_2_bn_1/batchnorm/mul", "op": "Const", "attr": {"value": {"tensor": {"dtype": "DT_FLOAT", "tensorShape": {"dim": [{"size": "1"}, {"size": "1"}, {"size": "1"}, {"size": "256"}]}}}, "dtype": {"type": "DT_FLOAT"}}}, {"name": "StatefulPartitionedCall/functional_6_1/resnet50_1/conv4_block1_2_bn_1/batchnorm/sub", "op": "Const", "attr": {"value": {"tensor": {"dtype": "DT_FLOAT", "tensorShape": {"dim": [{"size": "1"}, {"size": "1"}, {"size": "1"}, {"size": "256"}]}}}, "dtype": {"type": "DT_FLOAT"}}}, {"name": "StatefulPartitionedCall/functional_6_1/resnet50_1/conv4_block1_3_conv_1/convolution/ReadVariableOp", "op": "Const", "attr": {"value": {"tensor": {"dtype": "DT_FLOAT", "tensorShape": {"dim": [{"size": "1"}, {"size": "1"}, {"size": "256"}, {"size": "1024"}]}}}, "dtype": {"type": "DT_FLOAT"}}}, {"name": "StatefulPartitionedCall/functional_6_1/resnet50_1/conv4_block1_3_conv_1/Reshape", "op": "Const", "attr": {"value": {"tensor": {"dtype": "DT_FLOAT", "tensorShape": {"dim": [{"size": "1"}, {"size": "1"}, {"size": "1"}, {"size": "1024"}]}}}, "dtype": {"type": "DT_FLOAT"}}}, {"name": "StatefulPartitionedCall/functional_6_1/resnet50_1/conv4_block1_3_bn_1/batchnorm/mul", "op": "Const", "attr": {"value": {"tensor": {"dtype": "DT_FLOAT", "tensorShape": {"dim": [{"size": "1"}, {"size": "1"}, {"size": "1"}, {"size": "1024"}]}}}, "dtype": {"type": "DT_FLOAT"}}}, {"name": "StatefulPartitionedCall/functional_6_1/resnet50_1/conv4_block1_3_bn_1/batchnorm/sub", "op": "Const", "attr": {"value": {"tensor": {"dtype": "DT_FLOAT", "tensorShape": {"dim": [{"size": "1"}, {"size": "1"}, {"size": "1"}, {"size": "1024"}]}}}, "dtype": {"type": "DT_FLOAT"}}}, {"name": "StatefulPartitionedCall/functional_6_1/resnet50_1/conv4_block2_1_conv_1/convolution/ReadVariableOp", "op": "Const", "attr": {"value": {"tensor": {"dtype": "DT_FLOAT", "tensorShape": {"dim": [{"size": "1"}, {"size": "1"}, {"size": "1024"}, {"size": "256"}]}}}, "dtype": {"type": "DT_FLOAT"}}}, {"name": "StatefulPartitionedCall/functional_6_1/resnet50_1/conv4_block2_1_conv_1/Reshape", "op": "Const", "attr": {"value": {"tensor": {"dtype": "DT_FLOAT", "tensorShape": {"dim": [{"size": "1"}, {"size": "1"}, {"size": "1"}, {"size": "256"}]}}}, "dtype": {"type": "DT_FLOAT"}}}, {"name": "StatefulPartitionedCall/functional_6_1/resnet50_1/conv4_block2_1_bn_1/batchnorm/mul", "op": "Const", "attr": {"value": {"tensor": {"dtype": "DT_FLOAT", "tensorShape": {"dim": [{"size": "1"}, {"size": "1"}, {"size": "1"}, {"size": "256"}]}}}, "dtype": {"type": "DT_FLOAT"}}}, {"name": "StatefulPartitionedCall/functional_6_1/resnet50_1/conv4_block2_1_bn_1/batchnorm/sub", "op": "Const", "attr": {"value": {"tensor": {"dtype": "DT_FLOAT", "tensorShape": {"dim": [{"size": "1"}, {"size": "1"}, {"size": "1"}, {"size": "256"}]}}}, "dtype": {"type": "DT_FLOAT"}}}, {"name": "StatefulPartitionedCall/functional_6_1/resnet50_1/conv4_block2_2_conv_1/convolution/ReadVariableOp", "op": "Const", "attr": {"value": {"tensor": {"dtype": "DT_FLOAT", "tensorShape": {"dim": [{"size": "3"}, {"size": "3"}, {"size": "256"}, {"size": "256"}]}}}, "dtype": {"type": "DT_FLOAT"}}}, {"name": "StatefulPartitionedCall/functional_6_1/resnet50_1/conv4_block2_2_conv_1/Reshape", "op": "Const", "attr": {"value": {"tensor": {"dtype": "DT_FLOAT", "tensorShape": {"dim": [{"size": "1"}, {"size": "1"}, {"size": "1"}, {"size": "256"}]}}}, "dtype": {"type": "DT_FLOAT"}}}, {"name": "StatefulPartitionedCall/functional_6_1/resnet50_1/conv4_block2_2_bn_1/batchnorm/mul", "op": "Const", "attr": {"value": {"tensor": {"dtype": "DT_FLOAT", "tensorShape": {"dim": [{"size": "1"}, {"size": "1"}, {"size": "1"}, {"size": "256"}]}}}, "dtype": {"type": "DT_FLOAT"}}}, {"name": "StatefulPartitionedCall/functional_6_1/resnet50_1/conv4_block2_2_bn_1/batchnorm/sub", "op": "Const", "attr": {"value": {"tensor": {"dtype": "DT_FLOAT", "tensorShape": {"dim": [{"size": "1"}, {"size": "1"}, {"size": "1"}, {"size": "256"}]}}}, "dtype": {"type": "DT_FLOAT"}}}, {"name": "StatefulPartitionedCall/functional_6_1/resnet50_1/conv4_block2_3_conv_1/convolution/ReadVariableOp", "op": "Const", "attr": {"value": {"tensor": {"dtype": "DT_FLOAT", "tensorShape": {"dim": [{"size": "1"}, {"size": "1"}, {"size": "256"}, {"size": "1024"}]}}}, "dtype": {"type": "DT_FLOAT"}}}, {"name": "StatefulPartitionedCall/functional_6_1/resnet50_1/conv4_block2_3_conv_1/Reshape", "op": "Const", "attr": {"value": {"tensor": {"dtype": "DT_FLOAT", "tensorShape": {"dim": [{"size": "1"}, {"size": "1"}, {"size": "1"}, {"size": "1024"}]}}}, "dtype": {"type": "DT_FLOAT"}}}, {"name": "StatefulPartitionedCall/functional_6_1/resnet50_1/conv4_block2_3_bn_1/batchnorm/mul", "op": "Const", "attr": {"value": {"tensor": {"dtype": "DT_FLOAT", "tensorShape": {"dim": [{"size": "1"}, {"size": "1"}, {"size": "1"}, {"size": "1024"}]}}}, "dtype": {"type": "DT_FLOAT"}}}, {"name": "StatefulPartitionedCall/functional_6_1/resnet50_1/conv4_block2_3_bn_1/batchnorm/sub", "op": "Const", "attr": {"value": {"tensor": {"dtype": "DT_FLOAT", "tensorShape": {"dim": [{"size": "1"}, {"size": "1"}, {"size": "1"}, {"size": "1024"}]}}}, "dtype": {"type": "DT_FLOAT"}}}, {"name": "StatefulPartitionedCall/functional_6_1/resnet50_1/conv4_block3_1_conv_1/convolution/ReadVariableOp", "op": "Const", "attr": {"value": {"tensor": {"dtype": "DT_FLOAT", "tensorShape": {"dim": [{"size": "1"}, {"size": "1"}, {"size": "1024"}, {"size": "256"}]}}}, "dtype": {"type": "DT_FLOAT"}}}, {"name": "StatefulPartitionedCall/functional_6_1/resnet50_1/conv4_block3_1_conv_1/Reshape", "op": "Const", "attr": {"value": {"tensor": {"dtype": "DT_FLOAT", "tensorShape": {"dim": [{"size": "1"}, {"size": "1"}, {"size": "1"}, {"size": "256"}]}}}, "dtype": {"type": "DT_FLOAT"}}}, {"name": "StatefulPartitionedCall/functional_6_1/resnet50_1/conv4_block3_1_bn_1/batchnorm/mul", "op": "Const", "attr": {"value": {"tensor": {"dtype": "DT_FLOAT", "tensorShape": {"dim": [{"size": "1"}, {"size": "1"}, {"size": "1"}, {"size": "256"}]}}}, "dtype": {"type": "DT_FLOAT"}}}, {"name": "StatefulPartitionedCall/functional_6_1/resnet50_1/conv4_block3_1_bn_1/batchnorm/sub", "op": "Const", "attr": {"value": {"tensor": {"dtype": "DT_FLOAT", "tensorShape": {"dim": [{"size": "1"}, {"size": "1"}, {"size": "1"}, {"size": "256"}]}}}, "dtype": {"type": "DT_FLOAT"}}}, {"name": "StatefulPartitionedCall/functional_6_1/resnet50_1/conv4_block3_2_conv_1/convolution/ReadVariableOp", "op": "Const", "attr": {"value": {"tensor": {"dtype": "DT_FLOAT", "tensorShape": {"dim": [{"size": "3"}, {"size": "3"}, {"size": "256"}, {"size": "256"}]}}}, "dtype": {"type": "DT_FLOAT"}}}, {"name": "StatefulPartitionedCall/functional_6_1/resnet50_1/conv4_block3_2_conv_1/Reshape", "op": "Const", "attr": {"value": {"tensor": {"dtype": "DT_FLOAT", "tensorShape": {"dim": [{"size": "1"}, {"size": "1"}, {"size": "1"}, {"size": "256"}]}}}, "dtype": {"type": "DT_FLOAT"}}}, {"name": "StatefulPartitionedCall/functional_6_1/resnet50_1/conv4_block3_2_bn_1/batchnorm/mul", "op": "Const", "attr": {"value": {"tensor": {"dtype": "DT_FLOAT", "tensorShape": {"dim": [{"size": "1"}, {"size": "1"}, {"size": "1"}, {"size": "256"}]}}}, "dtype": {"type": "DT_FLOAT"}}}, {"name": "StatefulPartitionedCall/functional_6_1/resnet50_1/conv4_block3_2_bn_1/batchnorm/sub", "op": "Const", "attr": {"value": {"tensor": {"dtype": "DT_FLOAT", "tensorShape": {"dim": [{"size": "1"}, {"size": "1"}, {"size": "1"}, {"size": "256"}]}}}, "dtype": {"type": "DT_FLOAT"}}}, {"name": "StatefulPartitionedCall/functional_6_1/resnet50_1/conv4_block3_3_conv_1/convolution/ReadVariableOp", "op": "Const", "attr": {"value": {"tensor": {"dtype": "DT_FLOAT", "tensorShape": {"dim": [{"size": "1"}, {"size": "1"}, {"size": "256"}, {"size": "1024"}]}}}, "dtype": {"type": "DT_FLOAT"}}}, {"name": "StatefulPartitionedCall/functional_6_1/resnet50_1/conv4_block3_3_conv_1/Reshape", "op": "Const", "attr": {"value": {"tensor": {"dtype": "DT_FLOAT", "tensorShape": {"dim": [{"size": "1"}, {"size": "1"}, {"size": "1"}, {"size": "1024"}]}}}, "dtype": {"type": "DT_FLOAT"}}}, {"name": "StatefulPartitionedCall/functional_6_1/resnet50_1/conv4_block3_3_bn_1/batchnorm/mul", "op": "Const", "attr": {"value": {"tensor": {"dtype": "DT_FLOAT", "tensorShape": {"dim": [{"size": "1"}, {"size": "1"}, {"size": "1"}, {"size": "1024"}]}}}, "dtype": {"type": "DT_FLOAT"}}}, {"name": "StatefulPartitionedCall/functional_6_1/resnet50_1/conv4_block3_3_bn_1/batchnorm/sub", "op": "Const", "attr": {"value": {"tensor": {"dtype": "DT_FLOAT", "tensorShape": {"dim": [{"size": "1"}, {"size": "1"}, {"size": "1"}, {"size": "1024"}]}}}, "dtype": {"type": "DT_FLOAT"}}}, {"name": "StatefulPartitionedCall/functional_6_1/resnet50_1/conv4_block4_1_conv_1/convolution/ReadVariableOp", "op": "Const", "attr": {"value": {"tensor": {"dtype": "DT_FLOAT", "tensorShape": {"dim": [{"size": "1"}, {"size": "1"}, {"size": "1024"}, {"size": "256"}]}}}, "dtype": {"type": "DT_FLOAT"}}}, {"name": "StatefulPartitionedCall/functional_6_1/resnet50_1/conv4_block4_1_conv_1/Reshape", "op": "Const", "attr": {"value": {"tensor": {"dtype": "DT_FLOAT", "tensorShape": {"dim": [{"size": "1"}, {"size": "1"}, {"size": "1"}, {"size": "256"}]}}}, "dtype": {"type": "DT_FLOAT"}}}, {"name": "StatefulPartitionedCall/functional_6_1/resnet50_1/conv4_block4_1_bn_1/batchnorm/mul", "op": "Const", "attr": {"value": {"tensor": {"dtype": "DT_FLOAT", "tensorShape": {"dim": [{"size": "1"}, {"size": "1"}, {"size": "1"}, {"size": "256"}]}}}, "dtype": {"type": "DT_FLOAT"}}}, {"name": "StatefulPartitionedCall/functional_6_1/resnet50_1/conv4_block4_1_bn_1/batchnorm/sub", "op": "Const", "attr": {"value": {"tensor": {"dtype": "DT_FLOAT", "tensorShape": {"dim": [{"size": "1"}, {"size": "1"}, {"size": "1"}, {"size": "256"}]}}}, "dtype": {"type": "DT_FLOAT"}}}, {"name": "StatefulPartitionedCall/functional_6_1/resnet50_1/conv4_block4_2_conv_1/convolution/ReadVariableOp", "op": "Const", "attr": {"value": {"tensor": {"dtype": "DT_FLOAT", "tensorShape": {"dim": [{"size": "3"}, {"size": "3"}, {"size": "256"}, {"size": "256"}]}}}, "dtype": {"type": "DT_FLOAT"}}}, {"name": "StatefulPartitionedCall/functional_6_1/resnet50_1/conv4_block4_2_conv_1/Reshape", "op": "Const", "attr": {"value": {"tensor": {"dtype": "DT_FLOAT", "tensorShape": {"dim": [{"size": "1"}, {"size": "1"}, {"size": "1"}, {"size": "256"}]}}}, "dtype": {"type": "DT_FLOAT"}}}, {"name": "StatefulPartitionedCall/functional_6_1/resnet50_1/conv4_block4_2_bn_1/batchnorm/mul", "op": "Const", "attr": {"value": {"tensor": {"dtype": "DT_FLOAT", "tensorShape": {"dim": [{"size": "1"}, {"size": "1"}, {"size": "1"}, {"size": "256"}]}}}, "dtype": {"type": "DT_FLOAT"}}}, {"name": "StatefulPartitionedCall/functional_6_1/resnet50_1/conv4_block4_2_bn_1/batchnorm/sub", "op": "Const", "attr": {"value": {"tensor": {"dtype": "DT_FLOAT", "tensorShape": {"dim": [{"size": "1"}, {"size": "1"}, {"size": "1"}, {"size": "256"}]}}}, "dtype": {"type": "DT_FLOAT"}}}, {"name": "StatefulPartitionedCall/functional_6_1/resnet50_1/conv4_block4_3_conv_1/convolution/ReadVariableOp", "op": "Const", "attr": {"value": {"tensor": {"dtype": "DT_FLOAT", "tensorShape": {"dim": [{"size": "1"}, {"size": "1"}, {"size": "256"}, {"size": "1024"}]}}}, "dtype": {"type": "DT_FLOAT"}}}, {"name": "StatefulPartitionedCall/functional_6_1/resnet50_1/conv4_block4_3_conv_1/Reshape", "op": "Const", "attr": {"value": {"tensor": {"dtype": "DT_FLOAT", "tensorShape": {"dim": [{"size": "1"}, {"size": "1"}, {"size": "1"}, {"size": "1024"}]}}}, "dtype": {"type": "DT_FLOAT"}}}, {"name": "StatefulPartitionedCall/functional_6_1/resnet50_1/conv4_block4_3_bn_1/batchnorm/mul", "op": "Const", "attr": {"value": {"tensor": {"dtype": "DT_FLOAT", "tensorShape": {"dim": [{"size": "1"}, {"size": "1"}, {"size": "1"}, {"size": "1024"}]}}}, "dtype": {"type": "DT_FLOAT"}}}, {"name": "StatefulPartitionedCall/functional_6_1/resnet50_1/conv4_block4_3_bn_1/batchnorm/sub", "op": "Const", "attr": {"value": {"tensor": {"dtype": "DT_FLOAT", "tensorShape": {"dim": [{"size": "1"}, {"size": "1"}, {"size": "1"}, {"size": "1024"}]}}}, "dtype": {"type": "DT_FLOAT"}}}, {"name": "StatefulPartitionedCall/functional_6_1/resnet50_1/conv4_block5_1_conv_1/convolution/ReadVariableOp", "op": "Const", "attr": {"value": {"tensor": {"dtype": "DT_FLOAT", "tensorShape": {"dim": [{"size": "1"}, {"size": "1"}, {"size": "1024"}, {"size": "256"}]}}}, "dtype": {"type": "DT_FLOAT"}}}, {"name": "StatefulPartitionedCall/functional_6_1/resnet50_1/conv4_block5_1_conv_1/Reshape", "op": "Const", "attr": {"value": {"tensor": {"dtype": "DT_FLOAT", "tensorShape": {"dim": [{"size": "1"}, {"size": "1"}, {"size": "1"}, {"size": "256"}]}}}, "dtype": {"type": "DT_FLOAT"}}}, {"name": "StatefulPartitionedCall/functional_6_1/resnet50_1/conv4_block5_1_bn_1/batchnorm/mul", "op": "Const", "attr": {"value": {"tensor": {"dtype": "DT_FLOAT", "tensorShape": {"dim": [{"size": "1"}, {"size": "1"}, {"size": "1"}, {"size": "256"}]}}}, "dtype": {"type": "DT_FLOAT"}}}, {"name": "StatefulPartitionedCall/functional_6_1/resnet50_1/conv4_block5_1_bn_1/batchnorm/sub", "op": "Const", "attr": {"value": {"tensor": {"dtype": "DT_FLOAT", "tensorShape": {"dim": [{"size": "1"}, {"size": "1"}, {"size": "1"}, {"size": "256"}]}}}, "dtype": {"type": "DT_FLOAT"}}}, {"name": "StatefulPartitionedCall/functional_6_1/resnet50_1/conv4_block5_2_conv_1/convolution/ReadVariableOp", "op": "Const", "attr": {"value": {"tensor": {"dtype": "DT_FLOAT", "tensorShape": {"dim": [{"size": "3"}, {"size": "3"}, {"size": "256"}, {"size": "256"}]}}}, "dtype": {"type": "DT_FLOAT"}}}, {"name": "StatefulPartitionedCall/functional_6_1/resnet50_1/conv4_block5_2_conv_1/Reshape", "op": "Const", "attr": {"value": {"tensor": {"dtype": "DT_FLOAT", "tensorShape": {"dim": [{"size": "1"}, {"size": "1"}, {"size": "1"}, {"size": "256"}]}}}, "dtype": {"type": "DT_FLOAT"}}}, {"name": "StatefulPartitionedCall/functional_6_1/resnet50_1/conv4_block5_2_bn_1/batchnorm/mul", "op": "Const", "attr": {"value": {"tensor": {"dtype": "DT_FLOAT", "tensorShape": {"dim": [{"size": "1"}, {"size": "1"}, {"size": "1"}, {"size": "256"}]}}}, "dtype": {"type": "DT_FLOAT"}}}, {"name": "StatefulPartitionedCall/functional_6_1/resnet50_1/conv4_block5_2_bn_1/batchnorm/sub", "op": "Const", "attr": {"value": {"tensor": {"dtype": "DT_FLOAT", "tensorShape": {"dim": [{"size": "1"}, {"size": "1"}, {"size": "1"}, {"size": "256"}]}}}, "dtype": {"type": "DT_FLOAT"}}}, {"name": "StatefulPartitionedCall/functional_6_1/resnet50_1/conv4_block5_3_conv_1/convolution/ReadVariableOp", "op": "Const", "attr": {"value": {"tensor": {"dtype": "DT_FLOAT", "tensorShape": {"dim": [{"size": "1"}, {"size": "1"}, {"size": "256"}, {"size": "1024"}]}}}, "dtype": {"type": "DT_FLOAT"}}}, {"name": "StatefulPartitionedCall/functional_6_1/resnet50_1/conv4_block5_3_conv_1/Reshape", "op": "Const", "attr": {"value": {"tensor": {"dtype": "DT_FLOAT", "tensorShape": {"dim": [{"size": "1"}, {"size": "1"}, {"size": "1"}, {"size": "1024"}]}}}, "dtype": {"type": "DT_FLOAT"}}}, {"name": "StatefulPartitionedCall/functional_6_1/resnet50_1/conv4_block5_3_bn_1/batchnorm/mul", "op": "Const", "attr": {"value": {"tensor": {"dtype": "DT_FLOAT", "tensorShape": {"dim": [{"size": "1"}, {"size": "1"}, {"size": "1"}, {"size": "1024"}]}}}, "dtype": {"type": "DT_FLOAT"}}}, {"name": "StatefulPartitionedCall/functional_6_1/resnet50_1/conv4_block5_3_bn_1/batchnorm/sub", "op": "Const", "attr": {"value": {"tensor": {"dtype": "DT_FLOAT", "tensorShape": {"dim": [{"size": "1"}, {"size": "1"}, {"size": "1"}, {"size": "1024"}]}}}, "dtype": {"type": "DT_FLOAT"}}}, {"name": "StatefulPartitionedCall/functional_6_1/resnet50_1/conv4_block6_1_conv_1/convolution/ReadVariableOp", "op": "Const", "attr": {"value": {"tensor": {"dtype": "DT_FLOAT", "tensorShape": {"dim": [{"size": "1"}, {"size": "1"}, {"size": "1024"}, {"size": "256"}]}}}, "dtype": {"type": "DT_FLOAT"}}}, {"name": "StatefulPartitionedCall/functional_6_1/resnet50_1/conv4_block6_1_conv_1/Reshape", "op": "Const", "attr": {"value": {"tensor": {"dtype": "DT_FLOAT", "tensorShape": {"dim": [{"size": "1"}, {"size": "1"}, {"size": "1"}, {"size": "256"}]}}}, "dtype": {"type": "DT_FLOAT"}}}, {"name": "StatefulPartitionedCall/functional_6_1/resnet50_1/conv4_block6_1_bn_1/batchnorm/mul", "op": "Const", "attr": {"value": {"tensor": {"dtype": "DT_FLOAT", "tensorShape": {"dim": [{"size": "1"}, {"size": "1"}, {"size": "1"}, {"size": "256"}]}}}, "dtype": {"type": "DT_FLOAT"}}}, {"name": "StatefulPartitionedCall/functional_6_1/resnet50_1/conv4_block6_1_bn_1/batchnorm/sub", "op": "Const", "attr": {"value": {"tensor": {"dtype": "DT_FLOAT", "tensorShape": {"dim": [{"size": "1"}, {"size": "1"}, {"size": "1"}, {"size": "256"}]}}}, "dtype": {"type": "DT_FLOAT"}}}, {"name": "StatefulPartitionedCall/functional_6_1/resnet50_1/conv4_block6_2_conv_1/convolution/ReadVariableOp", "op": "Const", "attr": {"value": {"tensor": {"dtype": "DT_FLOAT", "tensorShape": {"dim": [{"size": "3"}, {"size": "3"}, {"size": "256"}, {"size": "256"}]}}}, "dtype": {"type": "DT_FLOAT"}}}, {"name": "StatefulPartitionedCall/functional_6_1/resnet50_1/conv4_block6_2_conv_1/Reshape", "op": "Const", "attr": {"value": {"tensor": {"dtype": "DT_FLOAT", "tensorShape": {"dim": [{"size": "1"}, {"size": "1"}, {"size": "1"}, {"size": "256"}]}}}, "dtype": {"type": "DT_FLOAT"}}}, {"name": "StatefulPartitionedCall/functional_6_1/resnet50_1/conv4_block6_2_bn_1/batchnorm/mul", "op": "Const", "attr": {"value": {"tensor": {"dtype": "DT_FLOAT", "tensorShape": {"dim": [{"size": "1"}, {"size": "1"}, {"size": "1"}, {"size": "256"}]}}}, "dtype": {"type": "DT_FLOAT"}}}, {"name": "StatefulPartitionedCall/functional_6_1/resnet50_1/conv4_block6_2_bn_1/batchnorm/sub", "op": "Const", "attr": {"value": {"tensor": {"dtype": "DT_FLOAT", "tensorShape": {"dim": [{"size": "1"}, {"size": "1"}, {"size": "1"}, {"size": "256"}]}}}, "dtype": {"type": "DT_FLOAT"}}}, {"name": "StatefulPartitionedCall/functional_6_1/resnet50_1/conv4_block6_3_conv_1/convolution/ReadVariableOp", "op": "Const", "attr": {"value": {"tensor": {"dtype": "DT_FLOAT", "tensorShape": {"dim": [{"size": "1"}, {"size": "1"}, {"size": "256"}, {"size": "1024"}]}}}, "dtype": {"type": "DT_FLOAT"}}}, {"name": "StatefulPartitionedCall/functional_6_1/resnet50_1/conv4_block6_3_conv_1/Reshape", "op": "Const", "attr": {"value": {"tensor": {"dtype": "DT_FLOAT", "tensorShape": {"dim": [{"size": "1"}, {"size": "1"}, {"size": "1"}, {"size": "1024"}]}}}, "dtype": {"type": "DT_FLOAT"}}}, {"name": "StatefulPartitionedCall/functional_6_1/resnet50_1/conv4_block6_3_bn_1/batchnorm/mul", "op": "Const", "attr": {"value": {"tensor": {"dtype": "DT_FLOAT", "tensorShape": {"dim": [{"size": "1"}, {"size": "1"}, {"size": "1"}, {"size": "1024"}]}}}, "dtype": {"type": "DT_FLOAT"}}}, {"name": "StatefulPartitionedCall/functional_6_1/resnet50_1/conv4_block6_3_bn_1/batchnorm/sub", "op": "Const", "attr": {"value": {"tensor": {"dtype": "DT_FLOAT", "tensorShape": {"dim": [{"size": "1"}, {"size": "1"}, {"size": "1"}, {"size": "1024"}]}}}, "dtype": {"type": "DT_FLOAT"}}}, {"name": "StatefulPartitionedCall/functional_6_1/resnet50_1/conv5_block1_1_conv_1/convolution/ReadVariableOp", "op": "Const", "attr": {"value": {"tensor": {"dtype": "DT_FLOAT", "tensorShape": {"dim": [{"size": "1"}, {"size": "1"}, {"size": "1024"}, {"size": "512"}]}}}, "dtype": {"type": "DT_FLOAT"}}}, {"name": "StatefulPartitionedCall/functional_6_1/resnet50_1/conv5_block1_1_conv_1/Reshape", "op": "Const", "attr": {"value": {"tensor": {"dtype": "DT_FLOAT", "tensorShape": {"dim": [{"size": "1"}, {"size": "1"}, {"size": "1"}, {"size": "512"}]}}}, "dtype": {"type": "DT_FLOAT"}}}, {"name": "StatefulPartitionedCall/functional_6_1/resnet50_1/conv5_block1_1_bn_1/batchnorm/mul", "op": "Const", "attr": {"value": {"tensor": {"dtype": "DT_FLOAT", "tensorShape": {"dim": [{"size": "1"}, {"size": "1"}, {"size": "1"}, {"size": "512"}]}}}, "dtype": {"type": "DT_FLOAT"}}}, {"name": "StatefulPartitionedCall/functional_6_1/resnet50_1/conv5_block1_1_bn_1/batchnorm/sub", "op": "Const", "attr": {"value": {"tensor": {"dtype": "DT_FLOAT", "tensorShape": {"dim": [{"size": "1"}, {"size": "1"}, {"size": "1"}, {"size": "512"}]}}}, "dtype": {"type": "DT_FLOAT"}}}, {"name": "StatefulPartitionedCall/functional_6_1/resnet50_1/conv5_block1_2_conv_1/convolution/ReadVariableOp", "op": "Const", "attr": {"value": {"tensor": {"dtype": "DT_FLOAT", "tensorShape": {"dim": [{"size": "3"}, {"size": "3"}, {"size": "512"}, {"size": "512"}]}}}, "dtype": {"type": "DT_FLOAT"}}}, {"name": "StatefulPartitionedCall/functional_6_1/resnet50_1/conv5_block1_2_conv_1/Reshape", "op": "Const", "attr": {"value": {"tensor": {"dtype": "DT_FLOAT", "tensorShape": {"dim": [{"size": "1"}, {"size": "1"}, {"size": "1"}, {"size": "512"}]}}}, "dtype": {"type": "DT_FLOAT"}}}, {"name": "StatefulPartitionedCall/functional_6_1/resnet50_1/conv5_block1_2_bn_1/batchnorm/mul", "op": "Const", "attr": {"value": {"tensor": {"dtype": "DT_FLOAT", "tensorShape": {"dim": [{"size": "1"}, {"size": "1"}, {"size": "1"}, {"size": "512"}]}}}, "dtype": {"type": "DT_FLOAT"}}}, {"name": "StatefulPartitionedCall/functional_6_1/resnet50_1/conv5_block1_2_bn_1/batchnorm/sub", "op": "Const", "attr": {"value": {"tensor": {"dtype": "DT_FLOAT", "tensorShape": {"dim": [{"size": "1"}, {"size": "1"}, {"size": "1"}, {"size": "512"}]}}}, "dtype": {"type": "DT_FLOAT"}}}, {"name": "StatefulPartitionedCall/functional_6_1/resnet50_1/conv5_block1_3_conv_1/convolution/ReadVariableOp", "op": "Const", "attr": {"value": {"tensor": {"dtype": "DT_FLOAT", "tensorShape": {"dim": [{"size": "1"}, {"size": "1"}, {"size": "512"}, {"size": "2048"}]}}}, "dtype": {"type": "DT_FLOAT"}}}, {"name": "StatefulPartitionedCall/functional_6_1/resnet50_1/conv5_block1_3_conv_1/Reshape", "op": "Const", "attr": {"value": {"tensor": {"dtype": "DT_FLOAT", "tensorShape": {"dim": [{"size": "1"}, {"size": "1"}, {"size": "1"}, {"size": "2048"}]}}}, "dtype": {"type": "DT_FLOAT"}}}, {"name": "StatefulPartitionedCall/functional_6_1/resnet50_1/conv5_block1_3_bn_1/batchnorm/mul", "op": "Const", "attr": {"value": {"tensor": {"dtype": "DT_FLOAT", "tensorShape": {"dim": [{"size": "1"}, {"size": "1"}, {"size": "1"}, {"size": "2048"}]}}}, "dtype": {"type": "DT_FLOAT"}}}, {"name": "StatefulPartitionedCall/functional_6_1/resnet50_1/conv5_block1_3_bn_1/batchnorm/sub", "op": "Const", "attr": {"value": {"tensor": {"dtype": "DT_FLOAT", "tensorShape": {"dim": [{"size": "1"}, {"size": "1"}, {"size": "1"}, {"size": "2048"}]}}}, "dtype": {"type": "DT_FLOAT"}}}, {"name": "StatefulPartitionedCall/functional_6_1/resnet50_1/conv5_block2_1_conv_1/convolution/ReadVariableOp", "op": "Const", "attr": {"value": {"tensor": {"dtype": "DT_FLOAT", "tensorShape": {"dim": [{"size": "1"}, {"size": "1"}, {"size": "2048"}, {"size": "512"}]}}}, "dtype": {"type": "DT_FLOAT"}}}, {"name": "StatefulPartitionedCall/functional_6_1/resnet50_1/conv5_block2_1_conv_1/Reshape", "op": "Const", "attr": {"value": {"tensor": {"dtype": "DT_FLOAT", "tensorShape": {"dim": [{"size": "1"}, {"size": "1"}, {"size": "1"}, {"size": "512"}]}}}, "dtype": {"type": "DT_FLOAT"}}}, {"name": "StatefulPartitionedCall/functional_6_1/resnet50_1/conv5_block2_1_bn_1/batchnorm/mul", "op": "Const", "attr": {"value": {"tensor": {"dtype": "DT_FLOAT", "tensorShape": {"dim": [{"size": "1"}, {"size": "1"}, {"size": "1"}, {"size": "512"}]}}}, "dtype": {"type": "DT_FLOAT"}}}, {"name": "StatefulPartitionedCall/functional_6_1/resnet50_1/conv5_block2_1_bn_1/batchnorm/sub", "op": "Const", "attr": {"value": {"tensor": {"dtype": "DT_FLOAT", "tensorShape": {"dim": [{"size": "1"}, {"size": "1"}, {"size": "1"}, {"size": "512"}]}}}, "dtype": {"type": "DT_FLOAT"}}}, {"name": "StatefulPartitionedCall/functional_6_1/resnet50_1/conv5_block2_2_conv_1/convolution/ReadVariableOp", "op": "Const", "attr": {"value": {"tensor": {"dtype": "DT_FLOAT", "tensorShape": {"dim": [{"size": "3"}, {"size": "3"}, {"size": "512"}, {"size": "512"}]}}}, "dtype": {"type": "DT_FLOAT"}}}, {"name": "StatefulPartitionedCall/functional_6_1/resnet50_1/conv5_block2_2_conv_1/Reshape", "op": "Const", "attr": {"value": {"tensor": {"dtype": "DT_FLOAT", "tensorShape": {"dim": [{"size": "1"}, {"size": "1"}, {"size": "1"}, {"size": "512"}]}}}, "dtype": {"type": "DT_FLOAT"}}}, {"name": "StatefulPartitionedCall/functional_6_1/resnet50_1/conv5_block2_2_bn_1/batchnorm/mul", "op": "Const", "attr": {"value": {"tensor": {"dtype": "DT_FLOAT", "tensorShape": {"dim": [{"size": "1"}, {"size": "1"}, {"size": "1"}, {"size": "512"}]}}}, "dtype": {"type": "DT_FLOAT"}}}, {"name": "StatefulPartitionedCall/functional_6_1/resnet50_1/conv5_block2_2_bn_1/batchnorm/sub", "op": "Const", "attr": {"value": {"tensor": {"dtype": "DT_FLOAT", "tensorShape": {"dim": [{"size": "1"}, {"size": "1"}, {"size": "1"}, {"size": "512"}]}}}, "dtype": {"type": "DT_FLOAT"}}}, {"name": "StatefulPartitionedCall/functional_6_1/resnet50_1/conv5_block2_3_conv_1/convolution/ReadVariableOp", "op": "Const", "attr": {"value": {"tensor": {"dtype": "DT_FLOAT", "tensorShape": {"dim": [{"size": "1"}, {"size": "1"}, {"size": "512"}, {"size": "2048"}]}}}, "dtype": {"type": "DT_FLOAT"}}}, {"name": "StatefulPartitionedCall/functional_6_1/resnet50_1/conv5_block2_3_conv_1/Reshape", "op": "Const", "attr": {"value": {"tensor": {"dtype": "DT_FLOAT", "tensorShape": {"dim": [{"size": "1"}, {"size": "1"}, {"size": "1"}, {"size": "2048"}]}}}, "dtype": {"type": "DT_FLOAT"}}}, {"name": "StatefulPartitionedCall/functional_6_1/resnet50_1/conv5_block2_3_bn_1/batchnorm/mul", "op": "Const", "attr": {"value": {"tensor": {"dtype": "DT_FLOAT", "tensorShape": {"dim": [{"size": "1"}, {"size": "1"}, {"size": "1"}, {"size": "2048"}]}}}, "dtype": {"type": "DT_FLOAT"}}}, {"name": "StatefulPartitionedCall/functional_6_1/resnet50_1/conv5_block2_3_bn_1/batchnorm/sub", "op": "Const", "attr": {"value": {"tensor": {"dtype": "DT_FLOAT", "tensorShape": {"dim": [{"size": "1"}, {"size": "1"}, {"size": "1"}, {"size": "2048"}]}}}, "dtype": {"type": "DT_FLOAT"}}}, {"name": "StatefulPartitionedCall/functional_6_1/resnet50_1/conv5_block3_1_conv_1/convolution/ReadVariableOp", "op": "Const", "attr": {"value": {"tensor": {"dtype": "DT_FLOAT", "tensorShape": {"dim": [{"size": "1"}, {"size": "1"}, {"size": "2048"}, {"size": "512"}]}}}, "dtype": {"type": "DT_FLOAT"}}}, {"name": "StatefulPartitionedCall/functional_6_1/resnet50_1/conv5_block3_1_conv_1/Reshape", "op": "Const", "attr": {"value": {"tensor": {"dtype": "DT_FLOAT", "tensorShape": {"dim": [{"size": "1"}, {"size": "1"}, {"size": "1"}, {"size": "512"}]}}}, "dtype": {"type": "DT_FLOAT"}}}, {"name": "StatefulPartitionedCall/functional_6_1/resnet50_1/conv5_block3_1_bn_1/batchnorm/mul", "op": "Const", "attr": {"value": {"tensor": {"dtype": "DT_FLOAT", "tensorShape": {"dim": [{"size": "1"}, {"size": "1"}, {"size": "1"}, {"size": "512"}]}}}, "dtype": {"type": "DT_FLOAT"}}}, {"name": "StatefulPartitionedCall/functional_6_1/resnet50_1/conv5_block3_1_bn_1/batchnorm/sub", "op": "Const", "attr": {"value": {"tensor": {"dtype": "DT_FLOAT", "tensorShape": {"dim": [{"size": "1"}, {"size": "1"}, {"size": "1"}, {"size": "512"}]}}}, "dtype": {"type": "DT_FLOAT"}}}, {"name": "StatefulPartitionedCall/functional_6_1/resnet50_1/conv5_block3_2_conv_1/convolution/ReadVariableOp", "op": "Const", "attr": {"value": {"tensor": {"dtype": "DT_FLOAT", "tensorShape": {"dim": [{"size": "3"}, {"size": "3"}, {"size": "512"}, {"size": "512"}]}}}, "dtype": {"type": "DT_FLOAT"}}}, {"name": "StatefulPartitionedCall/functional_6_1/resnet50_1/conv5_block3_2_conv_1/Reshape", "op": "Const", "attr": {"value": {"tensor": {"dtype": "DT_FLOAT", "tensorShape": {"dim": [{"size": "1"}, {"size": "1"}, {"size": "1"}, {"size": "512"}]}}}, "dtype": {"type": "DT_FLOAT"}}}, {"name": "StatefulPartitionedCall/functional_6_1/resnet50_1/conv5_block3_2_bn_1/batchnorm/mul", "op": "Const", "attr": {"value": {"tensor": {"dtype": "DT_FLOAT", "tensorShape": {"dim": [{"size": "1"}, {"size": "1"}, {"size": "1"}, {"size": "512"}]}}}, "dtype": {"type": "DT_FLOAT"}}}, {"name": "StatefulPartitionedCall/functional_6_1/resnet50_1/conv5_block3_2_bn_1/batchnorm/sub", "op": "Const", "attr": {"value": {"tensor": {"dtype": "DT_FLOAT", "tensorShape": {"dim": [{"size": "1"}, {"size": "1"}, {"size": "1"}, {"size": "512"}]}}}, "dtype": {"type": "DT_FLOAT"}}}, {"name": "StatefulPartitionedCall/functional_6_1/resnet50_1/conv5_block3_3_conv_1/convolution/ReadVariableOp", "op": "Const", "attr": {"value": {"tensor": {"dtype": "DT_FLOAT", "tensorShape": {"dim": [{"size": "1"}, {"size": "1"}, {"size": "512"}, {"size": "2048"}]}}}, "dtype": {"type": "DT_FLOAT"}}}, {"name": "StatefulPartitionedCall/functional_6_1/resnet50_1/conv5_block3_3_conv_1/Reshape", "op": "Const", "attr": {"value": {"tensor": {"dtype": "DT_FLOAT", "tensorShape": {"dim": [{"size": "1"}, {"size": "1"}, {"size": "1"}, {"size": "2048"}]}}}, "dtype": {"type": "DT_FLOAT"}}}, {"name": "StatefulPartitionedCall/functional_6_1/resnet50_1/conv5_block3_3_bn_1/batchnorm/mul", "op": "Const", "attr": {"value": {"tensor": {"dtype": "DT_FLOAT", "tensorShape": {"dim": [{"size": "1"}, {"size": "1"}, {"size": "1"}, {"size": "2048"}]}}}, "dtype": {"type": "DT_FLOAT"}}}, {"name": "StatefulPartitionedCall/functional_6_1/resnet50_1/conv5_block3_3_bn_1/batchnorm/sub", "op": "Const", "attr": {"value": {"tensor": {"dtype": "DT_FLOAT", "tensorShape": {"dim": [{"size": "1"}, {"size": "1"}, {"size": "1"}, {"size": "2048"}]}}}, "dtype": {"type": "DT_FLOAT"}}}, {"name": "StatefulPartitionedCall/functional_6_1/global_average_pooling2d_6_1/Mean/reduction_indices", "op": "Const", "attr": {"value": {"tensor": {"dtype": "DT_INT32", "tensorShape": {"dim": [{"size": "2"}]}}}, "dtype": {"type": "DT_INT32"}}}, {"name": "StatefulPartitionedCall/functional_6_1/dense_9_1/Cast/ReadVariableOp", "op": "Const", "attr": {"value": {"tensor": {"dtype": "DT_FLOAT", "tensorShape": {"dim": [{"size": "2048"}, {"size": "3"}]}}}, "dtype": {"type": "DT_FLOAT"}}}, {"name": "StatefulPartitionedCall/functional_6_1/dense_9_1/Add/ReadVariableOp", "op": "Const", "attr": {"value": {"tensor": {"dtype": "DT_FLOAT", "tensorShape": {"dim": [{"size": "3"}]}}}, "dtype": {"type": "DT_FLOAT"}}}, {"name": "inputs", "op": "Placeholder", "attr": {"shape": {"shape": {"dim": [{"size": "-1"}, {"size": "224"}, {"size": "224"}, {"size": "1"}]}}, "dtype": {"type": "DT_FLOAT"}}}, {"name": "StatefulPartitionedCall/functional_6_1/conv2d_6_1/add", "op": "_FusedConv2D", "input": ["inputs", "StatefulPartitionedCall/functional_6_1/conv2d_6_1/convolution/ReadVariableOp", "StatefulPartitionedCall/functional_6_1/conv2d_6_1/Reshape"], "device": "/device:CPU:0", "attr": {"num_host_args": {"i": "0"}, "data_format": {"s": "TkhXQw=="}, "filter_format": {"s": "SFdJTw=="}, "strides": {"list": {"i": ["1", "1", "1", "1"]}}, "num_args": {"i": "1"}, "fused_ops": {"list": {"s": ["Qmlhc0FkZA=="]}}, "TArgs": {"list": {"type": ["DT_FLOAT"]}}, "padding": {"s": "U0FNRQ=="}, "use_cudnn_on_gpu": {"b": true}, "leakyrelu_alpha": {"f": 0.2}, "epsilon": {"f": 0.0}, "T": {"type": "DT_FLOAT"}, "explicit_paddings": {"list": {}}, "dilations": {"list": {"i": ["1", "1", "1", "1"]}}}}, {"name": "StatefulPartitionedCall/functional_6_1/resnet50_1/conv1_pad_1/Pad", "op": "Pad", "input": ["StatefulPartitionedCall/functional_6_1/conv2d_6_1/add", "StatefulPartitionedCall/functional_6_1/resnet50_1/conv1_pad_1/Const"], "attr": {"Tpaddings": {"type": "DT_INT32"}, "T": {"type": "DT_FLOAT"}}}, {"name": "StatefulPartitionedCall/functional_6_1/resnet50_1/conv1_conv_1/add", "op": "_FusedConv2D", "input": ["StatefulPartitionedCall/functional_6_1/resnet50_1/conv1_pad_1/Pad", "StatefulPartitionedCall/functional_6_1/resnet50_1/conv1_conv_1/convolution/ReadVariableOp", "StatefulPartitionedCall/functional_6_1/resnet50_1/conv1_conv_1/Reshape"], "device": "/device:CPU:0", "attr": {"num_host_args": {"i": "0"}, "data_format": {"s": "TkhXQw=="}, "filter_format": {"s": "SFdJTw=="}, "fused_ops": {"list": {"s": ["Qmlhc0FkZA=="]}}, "num_args": {"i": "1"}, "strides": {"list": {"i": ["1", "2", "2", "1"]}}, "TArgs": {"list": {"type": ["DT_FLOAT"]}}, "padding": {"s": "VkFMSUQ="}, "use_cudnn_on_gpu": {"b": true}, "leakyrelu_alpha": {"f": 0.2}, "epsilon": {"f": 0.0}, "T": {"type": "DT_FLOAT"}, "explicit_paddings": {"list": {}}, "dilations": {"list": {"i": ["1", "1", "1", "1"]}}}}, {"name": "StatefulPartitionedCall/functional_6_1/resnet50_1/conv1_bn_1/batchnorm/mul_1", "op": "Mul", "input": ["StatefulPartitionedCall/functional_6_1/resnet50_1/conv1_conv_1/add", "StatefulPartitionedCall/functional_6_1/resnet50_1/conv1_bn_1/batchnorm/mul"], "attr": {"T": {"type": "DT_FLOAT"}}}, {"name": "StatefulPartitionedCall/functional_6_1/resnet50_1/conv1_bn_1/batchnorm/add_1", "op": "AddV2", "input": ["StatefulPartitionedCall/functional_6_1/resnet50_1/conv1_bn_1/batchnorm/mul_1", "StatefulPartitionedCall/functional_6_1/resnet50_1/conv1_bn_1/batchnorm/sub"], "attr": {"T": {"type": "DT_FLOAT"}}}, {"name": "StatefulPartitionedCall/functional_6_1/resnet50_1/conv1_relu_1/Relu", "op": "Relu", "input": ["StatefulPartitionedCall/functional_6_1/resnet50_1/conv1_bn_1/batchnorm/add_1"], "attr": {"T": {"type": "DT_FLOAT"}}}, {"name": "StatefulPartitionedCall/functional_6_1/resnet50_1/pool1_pad_1/Pad", "op": "Pad", "input": ["StatefulPartitionedCall/functional_6_1/resnet50_1/conv1_relu_1/Relu", "StatefulPartitionedCall/functional_6_1/resnet50_1/pool1_pad_1/Const"], "attr": {"Tpaddings": {"type": "DT_INT32"}, "T": {"type": "DT_FLOAT"}}}, {"name": "StatefulPartitionedCall/functional_6_1/resnet50_1/pool1_pool_1/MaxPool2d", "op": "MaxPool", "input": ["StatefulPartitionedCall/functional_6_1/resnet50_1/pool1_pad_1/Pad"], "attr": {"ksize": {"list": {"i": ["1", "3", "3", "1"]}}, "data_format": {"s": "TkhXQw=="}, "T": {"type": "DT_FLOAT"}, "explicit_paddings": {"list": {}}, "padding": {"s": "VkFMSUQ="}, "strides": {"list": {"i": ["1", "2", "2", "1"]}}}}, {"name": "StatefulPartitionedCall/functional_6_1/resnet50_1/conv2_block1_0_conv_1/add", "op": "_FusedConv2D", "input": ["StatefulPartitionedCall/functional_6_1/resnet50_1/pool1_pool_1/MaxPool2d", "StatefulPartitionedCall/functional_6_1/resnet50_1/conv2_block1_0_conv_1/convolution/ReadVariableOp", "StatefulPartitionedCall/functional_6_1/resnet50_1/conv2_block1_0_conv_1/Reshape"], "device": "/device:CPU:0", "attr": {"num_host_args": {"i": "0"}, "data_format": {"s": "TkhXQw=="}, "filter_format": {"s": "SFdJTw=="}, "fused_ops": {"list": {"s": ["Qmlhc0FkZA=="]}}, "num_args": {"i": "1"}, "strides": {"list": {"i": ["1", "1", "1", "1"]}}, "TArgs": {"list": {"type": ["DT_FLOAT"]}}, "padding": {"s": "VkFMSUQ="}, "use_cudnn_on_gpu": {"b": true}, "leakyrelu_alpha": {"f": 0.2}, "epsilon": {"f": 0.0}, "T": {"type": "DT_FLOAT"}, "explicit_paddings": {"list": {}}, "dilations": {"list": {"i": ["1", "1", "1", "1"]}}}}, {"name": "StatefulPartitionedCall/functional_6_1/resnet50_1/conv2_block1_1_conv_1/add", "op": "_FusedConv2D", "input": ["StatefulPartitionedCall/functional_6_1/resnet50_1/pool1_pool_1/MaxPool2d", "StatefulPartitionedCall/functional_6_1/resnet50_1/conv2_block1_1_conv_1/convolution/ReadVariableOp", "StatefulPartitionedCall/functional_6_1/resnet50_1/conv2_block1_1_conv_1/Reshape"], "device": "/device:CPU:0", "attr": {"num_host_args": {"i": "0"}, "data_format": {"s": "TkhXQw=="}, "filter_format": {"s": "SFdJTw=="}, "fused_ops": {"list": {"s": ["Qmlhc0FkZA=="]}}, "num_args": {"i": "1"}, "strides": {"list": {"i": ["1", "1", "1", "1"]}}, "TArgs": {"list": {"type": ["DT_FLOAT"]}}, "padding": {"s": "VkFMSUQ="}, "use_cudnn_on_gpu": {"b": true}, "leakyrelu_alpha": {"f": 0.2}, "epsilon": {"f": 0.0}, "T": {"type": "DT_FLOAT"}, "explicit_paddings": {"list": {}}, "dilations": {"list": {"i": ["1", "1", "1", "1"]}}}}, {"name": "StatefulPartitionedCall/functional_6_1/resnet50_1/conv2_block1_0_bn_1/batchnorm/mul_1", "op": "Mul", "input": ["StatefulPartitionedCall/functional_6_1/resnet50_1/conv2_block1_0_conv_1/add", "StatefulPartitionedCall/functional_6_1/resnet50_1/conv2_block1_0_bn_1/batchnorm/mul"], "attr": {"T": {"type": "DT_FLOAT"}}}, {"name": "StatefulPartitionedCall/functional_6_1/resnet50_1/conv2_block1_1_bn_1/batchnorm/mul_1", "op": "Mul", "input": ["StatefulPartitionedCall/functional_6_1/resnet50_1/conv2_block1_1_conv_1/add", "StatefulPartitionedCall/functional_6_1/resnet50_1/conv2_block1_1_bn_1/batchnorm/mul"], "attr": {"T": {"type": "DT_FLOAT"}}}, {"name": "StatefulPartitionedCall/functional_6_1/resnet50_1/conv2_block1_0_bn_1/batchnorm/add_1", "op": "AddV2", "input": ["StatefulPartitionedCall/functional_6_1/resnet50_1/conv2_block1_0_bn_1/batchnorm/mul_1", "StatefulPartitionedCall/functional_6_1/resnet50_1/conv2_block1_0_bn_1/batchnorm/sub"], "attr": {"T": {"type": "DT_FLOAT"}}}, {"name": "StatefulPartitionedCall/functional_6_1/resnet50_1/conv2_block1_1_bn_1/batchnorm/add_1", "op": "AddV2", "input": ["StatefulPartitionedCall/functional_6_1/resnet50_1/conv2_block1_1_bn_1/batchnorm/mul_1", "StatefulPartitionedCall/functional_6_1/resnet50_1/conv2_block1_1_bn_1/batchnorm/sub"], "attr": {"T": {"type": "DT_FLOAT"}}}, {"name": "StatefulPartitionedCall/functional_6_1/resnet50_1/conv2_block1_1_relu_1/Relu", "op": "Relu", "input": ["StatefulPartitionedCall/functional_6_1/resnet50_1/conv2_block1_1_bn_1/batchnorm/add_1"], "attr": {"T": {"type": "DT_FLOAT"}}}, {"name": "StatefulPartitionedCall/functional_6_1/resnet50_1/conv2_block1_2_conv_1/add", "op": "_FusedConv2D", "input": ["StatefulPartitionedCall/functional_6_1/resnet50_1/conv2_block1_1_relu_1/Relu", "StatefulPartitionedCall/functional_6_1/resnet50_1/conv2_block1_2_conv_1/convolution/ReadVariableOp", "StatefulPartitionedCall/functional_6_1/resnet50_1/conv2_block1_2_conv_1/Reshape"], "device": "/device:CPU:0", "attr": {"num_host_args": {"i": "0"}, "data_format": {"s": "TkhXQw=="}, "filter_format": {"s": "SFdJTw=="}, "strides": {"list": {"i": ["1", "1", "1", "1"]}}, "num_args": {"i": "1"}, "fused_ops": {"list": {"s": ["Qmlhc0FkZA=="]}}, "TArgs": {"list": {"type": ["DT_FLOAT"]}}, "padding": {"s": "U0FNRQ=="}, "use_cudnn_on_gpu": {"b": true}, "leakyrelu_alpha": {"f": 0.2}, "epsilon": {"f": 0.0}, "T": {"type": "DT_FLOAT"}, "explicit_paddings": {"list": {}}, "dilations": {"list": {"i": ["1", "1", "1", "1"]}}}}, {"name": "StatefulPartitionedCall/functional_6_1/resnet50_1/conv2_block1_2_bn_1/batchnorm/mul_1", "op": "Mul", "input": ["StatefulPartitionedCall/functional_6_1/resnet50_1/conv2_block1_2_conv_1/add", "StatefulPartitionedCall/functional_6_1/resnet50_1/conv2_block1_2_bn_1/batchnorm/mul"], "attr": {"T": {"type": "DT_FLOAT"}}}, {"name": "StatefulPartitionedCall/functional_6_1/resnet50_1/conv2_block1_2_bn_1/batchnorm/add_1", "op": "AddV2", "input": ["StatefulPartitionedCall/functional_6_1/resnet50_1/conv2_block1_2_bn_1/batchnorm/mul_1", "StatefulPartitionedCall/functional_6_1/resnet50_1/conv2_block1_2_bn_1/batchnorm/sub"], "attr": {"T": {"type": "DT_FLOAT"}}}, {"name": "StatefulPartitionedCall/functional_6_1/resnet50_1/conv2_block1_2_relu_1/Relu", "op": "Relu", "input": ["StatefulPartitionedCall/functional_6_1/resnet50_1/conv2_block1_2_bn_1/batchnorm/add_1"], "attr": {"T": {"type": "DT_FLOAT"}}}, {"name": "StatefulPartitionedCall/functional_6_1/resnet50_1/conv2_block1_3_conv_1/add", "op": "_FusedConv2D", "input": ["StatefulPartitionedCall/functional_6_1/resnet50_1/conv2_block1_2_relu_1/Relu", "StatefulPartitionedCall/functional_6_1/resnet50_1/conv2_block1_3_conv_1/convolution/ReadVariableOp", "StatefulPartitionedCall/functional_6_1/resnet50_1/conv2_block1_3_conv_1/Reshape"], "device": "/device:CPU:0", "attr": {"num_host_args": {"i": "0"}, "data_format": {"s": "TkhXQw=="}, "filter_format": {"s": "SFdJTw=="}, "strides": {"list": {"i": ["1", "1", "1", "1"]}}, "num_args": {"i": "1"}, "fused_ops": {"list": {"s": ["Qmlhc0FkZA=="]}}, "TArgs": {"list": {"type": ["DT_FLOAT"]}}, "padding": {"s": "VkFMSUQ="}, "use_cudnn_on_gpu": {"b": true}, "leakyrelu_alpha": {"f": 0.2}, "epsilon": {"f": 0.0}, "T": {"type": "DT_FLOAT"}, "explicit_paddings": {"list": {}}, "dilations": {"list": {"i": ["1", "1", "1", "1"]}}}}, {"name": "StatefulPartitionedCall/functional_6_1/resnet50_1/conv2_block1_3_bn_1/batchnorm/mul_1", "op": "Mul", "input": ["StatefulPartitionedCall/functional_6_1/resnet50_1/conv2_block1_3_conv_1/add", "StatefulPartitionedCall/functional_6_1/resnet50_1/conv2_block1_3_bn_1/batchnorm/mul"], "attr": {"T": {"type": "DT_FLOAT"}}}, {"name": "StatefulPartitionedCall/functional_6_1/resnet50_1/conv2_block1_3_bn_1/batchnorm/add_1", "op": "AddV2", "input": ["StatefulPartitionedCall/functional_6_1/resnet50_1/conv2_block1_3_bn_1/batchnorm/mul_1", "StatefulPartitionedCall/functional_6_1/resnet50_1/conv2_block1_3_bn_1/batchnorm/sub"], "attr": {"T": {"type": "DT_FLOAT"}}}, {"name": "StatefulPartitionedCall/functional_6_1/resnet50_1/conv2_block1_add_1/Add", "op": "AddV2", "input": ["StatefulPartitionedCall/functional_6_1/resnet50_1/conv2_block1_0_bn_1/batchnorm/add_1", "StatefulPartitionedCall/functional_6_1/resnet50_1/conv2_block1_3_bn_1/batchnorm/add_1"], "attr": {"T": {"type": "DT_FLOAT"}}}, {"name": "StatefulPartitionedCall/functional_6_1/resnet50_1/conv2_block1_out_1/Relu", "op": "Relu", "input": ["StatefulPartitionedCall/functional_6_1/resnet50_1/conv2_block1_add_1/Add"], "attr": {"T": {"type": "DT_FLOAT"}}}, {"name": "StatefulPartitionedCall/functional_6_1/resnet50_1/conv2_block2_1_conv_1/add", "op": "_FusedConv2D", "input": ["StatefulPartitionedCall/functional_6_1/resnet50_1/conv2_block1_out_1/Relu", "StatefulPartitionedCall/functional_6_1/resnet50_1/conv2_block2_1_conv_1/convolution/ReadVariableOp", "StatefulPartitionedCall/functional_6_1/resnet50_1/conv2_block2_1_conv_1/Reshape"], "device": "/device:CPU:0", "attr": {"num_host_args": {"i": "0"}, "data_format": {"s": "TkhXQw=="}, "filter_format": {"s": "SFdJTw=="}, "fused_ops": {"list": {"s": ["Qmlhc0FkZA=="]}}, "num_args": {"i": "1"}, "strides": {"list": {"i": ["1", "1", "1", "1"]}}, "TArgs": {"list": {"type": ["DT_FLOAT"]}}, "padding": {"s": "VkFMSUQ="}, "use_cudnn_on_gpu": {"b": true}, "leakyrelu_alpha": {"f": 0.2}, "epsilon": {"f": 0.0}, "T": {"type": "DT_FLOAT"}, "explicit_paddings": {"list": {}}, "dilations": {"list": {"i": ["1", "1", "1", "1"]}}}}, {"name": "StatefulPartitionedCall/functional_6_1/resnet50_1/conv2_block2_1_bn_1/batchnorm/mul_1", "op": "Mul", "input": ["StatefulPartitionedCall/functional_6_1/resnet50_1/conv2_block2_1_conv_1/add", "StatefulPartitionedCall/functional_6_1/resnet50_1/conv2_block2_1_bn_1/batchnorm/mul"], "attr": {"T": {"type": "DT_FLOAT"}}}, {"name": "StatefulPartitionedCall/functional_6_1/resnet50_1/conv2_block2_1_bn_1/batchnorm/add_1", "op": "AddV2", "input": ["StatefulPartitionedCall/functional_6_1/resnet50_1/conv2_block2_1_bn_1/batchnorm/mul_1", "StatefulPartitionedCall/functional_6_1/resnet50_1/conv2_block2_1_bn_1/batchnorm/sub"], "attr": {"T": {"type": "DT_FLOAT"}}}, {"name": "StatefulPartitionedCall/functional_6_1/resnet50_1/conv2_block2_1_relu_1/Relu", "op": "Relu", "input": ["StatefulPartitionedCall/functional_6_1/resnet50_1/conv2_block2_1_bn_1/batchnorm/add_1"], "attr": {"T": {"type": "DT_FLOAT"}}}, {"name": "StatefulPartitionedCall/functional_6_1/resnet50_1/conv2_block2_2_conv_1/add", "op": "_FusedConv2D", "input": ["StatefulPartitionedCall/functional_6_1/resnet50_1/conv2_block2_1_relu_1/Relu", "StatefulPartitionedCall/functional_6_1/resnet50_1/conv2_block2_2_conv_1/convolution/ReadVariableOp", "StatefulPartitionedCall/functional_6_1/resnet50_1/conv2_block2_2_conv_1/Reshape"], "device": "/device:CPU:0", "attr": {"num_host_args": {"i": "0"}, "data_format": {"s": "TkhXQw=="}, "filter_format": {"s": "SFdJTw=="}, "fused_ops": {"list": {"s": ["Qmlhc0FkZA=="]}}, "num_args": {"i": "1"}, "strides": {"list": {"i": ["1", "1", "1", "1"]}}, "TArgs": {"list": {"type": ["DT_FLOAT"]}}, "padding": {"s": "U0FNRQ=="}, "use_cudnn_on_gpu": {"b": true}, "leakyrelu_alpha": {"f": 0.2}, "epsilon": {"f": 0.0}, "T": {"type": "DT_FLOAT"}, "explicit_paddings": {"list": {}}, "dilations": {"list": {"i": ["1", "1", "1", "1"]}}}}, {"name": "StatefulPartitionedCall/functional_6_1/resnet50_1/conv2_block2_2_bn_1/batchnorm/mul_1", "op": "Mul", "input": ["StatefulPartitionedCall/functional_6_1/resnet50_1/conv2_block2_2_conv_1/add", "StatefulPartitionedCall/functional_6_1/resnet50_1/conv2_block2_2_bn_1/batchnorm/mul"], "attr": {"T": {"type": "DT_FLOAT"}}}, {"name": "StatefulPartitionedCall/functional_6_1/resnet50_1/conv2_block2_2_bn_1/batchnorm/add_1", "op": "AddV2", "input": ["StatefulPartitionedCall/functional_6_1/resnet50_1/conv2_block2_2_bn_1/batchnorm/mul_1", "StatefulPartitionedCall/functional_6_1/resnet50_1/conv2_block2_2_bn_1/batchnorm/sub"], "attr": {"T": {"type": "DT_FLOAT"}}}, {"name": "StatefulPartitionedCall/functional_6_1/resnet50_1/conv2_block2_2_relu_1/Relu", "op": "Relu", "input": ["StatefulPartitionedCall/functional_6_1/resnet50_1/conv2_block2_2_bn_1/batchnorm/add_1"], "attr": {"T": {"type": "DT_FLOAT"}}}, {"name": "StatefulPartitionedCall/functional_6_1/resnet50_1/conv2_block2_3_conv_1/add", "op": "_FusedConv2D", "input": ["StatefulPartitionedCall/functional_6_1/resnet50_1/conv2_block2_2_relu_1/Relu", "StatefulPartitionedCall/functional_6_1/resnet50_1/conv2_block2_3_conv_1/convolution/ReadVariableOp", "StatefulPartitionedCall/functional_6_1/resnet50_1/conv2_block2_3_conv_1/Reshape"], "device": "/device:CPU:0", "attr": {"num_host_args": {"i": "0"}, "data_format": {"s": "TkhXQw=="}, "filter_format": {"s": "SFdJTw=="}, "strides": {"list": {"i": ["1", "1", "1", "1"]}}, "num_args": {"i": "1"}, "fused_ops": {"list": {"s": ["Qmlhc0FkZA=="]}}, "TArgs": {"list": {"type": ["DT_FLOAT"]}}, "padding": {"s": "VkFMSUQ="}, "use_cudnn_on_gpu": {"b": true}, "leakyrelu_alpha": {"f": 0.2}, "epsilon": {"f": 0.0}, "T": {"type": "DT_FLOAT"}, "explicit_paddings": {"list": {}}, "dilations": {"list": {"i": ["1", "1", "1", "1"]}}}}, {"name": "StatefulPartitionedCall/functional_6_1/resnet50_1/conv2_block2_3_bn_1/batchnorm/mul_1", "op": "Mul", "input": ["StatefulPartitionedCall/functional_6_1/resnet50_1/conv2_block2_3_conv_1/add", "StatefulPartitionedCall/functional_6_1/resnet50_1/conv2_block2_3_bn_1/batchnorm/mul"], "attr": {"T": {"type": "DT_FLOAT"}}}, {"name": "StatefulPartitionedCall/functional_6_1/resnet50_1/conv2_block2_3_bn_1/batchnorm/add_1", "op": "AddV2", "input": ["StatefulPartitionedCall/functional_6_1/resnet50_1/conv2_block2_3_bn_1/batchnorm/mul_1", "StatefulPartitionedCall/functional_6_1/resnet50_1/conv2_block2_3_bn_1/batchnorm/sub"], "attr": {"T": {"type": "DT_FLOAT"}}}, {"name": "StatefulPartitionedCall/functional_6_1/resnet50_1/conv2_block2_add_1/Add", "op": "AddV2", "input": ["StatefulPartitionedCall/functional_6_1/resnet50_1/conv2_block1_out_1/Relu", "StatefulPartitionedCall/functional_6_1/resnet50_1/conv2_block2_3_bn_1/batchnorm/add_1"], "attr": {"T": {"type": "DT_FLOAT"}}}, {"name": "StatefulPartitionedCall/functional_6_1/resnet50_1/conv2_block2_out_1/Relu", "op": "Relu", "input": ["StatefulPartitionedCall/functional_6_1/resnet50_1/conv2_block2_add_1/Add"], "attr": {"T": {"type": "DT_FLOAT"}}}, {"name": "StatefulPartitionedCall/functional_6_1/resnet50_1/conv2_block3_1_conv_1/add", "op": "_FusedConv2D", "input": ["StatefulPartitionedCall/functional_6_1/resnet50_1/conv2_block2_out_1/Relu", "StatefulPartitionedCall/functional_6_1/resnet50_1/conv2_block3_1_conv_1/convolution/ReadVariableOp", "StatefulPartitionedCall/functional_6_1/resnet50_1/conv2_block3_1_conv_1/Reshape"], "device": "/device:CPU:0", "attr": {"num_host_args": {"i": "0"}, "data_format": {"s": "TkhXQw=="}, "filter_format": {"s": "SFdJTw=="}, "strides": {"list": {"i": ["1", "1", "1", "1"]}}, "num_args": {"i": "1"}, "fused_ops": {"list": {"s": ["Qmlhc0FkZA=="]}}, "TArgs": {"list": {"type": ["DT_FLOAT"]}}, "padding": {"s": "VkFMSUQ="}, "use_cudnn_on_gpu": {"b": true}, "leakyrelu_alpha": {"f": 0.2}, "epsilon": {"f": 0.0}, "T": {"type": "DT_FLOAT"}, "explicit_paddings": {"list": {}}, "dilations": {"list": {"i": ["1", "1", "1", "1"]}}}}, {"name": "StatefulPartitionedCall/functional_6_1/resnet50_1/conv2_block3_1_bn_1/batchnorm/mul_1", "op": "Mul", "input": ["StatefulPartitionedCall/functional_6_1/resnet50_1/conv2_block3_1_conv_1/add", "StatefulPartitionedCall/functional_6_1/resnet50_1/conv2_block3_1_bn_1/batchnorm/mul"], "attr": {"T": {"type": "DT_FLOAT"}}}, {"name": "StatefulPartitionedCall/functional_6_1/resnet50_1/conv2_block3_1_bn_1/batchnorm/add_1", "op": "AddV2", "input": ["StatefulPartitionedCall/functional_6_1/resnet50_1/conv2_block3_1_bn_1/batchnorm/mul_1", "StatefulPartitionedCall/functional_6_1/resnet50_1/conv2_block3_1_bn_1/batchnorm/sub"], "attr": {"T": {"type": "DT_FLOAT"}}}, {"name": "StatefulPartitionedCall/functional_6_1/resnet50_1/conv2_block3_1_relu_1/Relu", "op": "Relu", "input": ["StatefulPartitionedCall/functional_6_1/resnet50_1/conv2_block3_1_bn_1/batchnorm/add_1"], "attr": {"T": {"type": "DT_FLOAT"}}}, {"name": "StatefulPartitionedCall/functional_6_1/resnet50_1/conv2_block3_2_conv_1/add", "op": "_FusedConv2D", "input": ["StatefulPartitionedCall/functional_6_1/resnet50_1/conv2_block3_1_relu_1/Relu", "StatefulPartitionedCall/functional_6_1/resnet50_1/conv2_block3_2_conv_1/convolution/ReadVariableOp", "StatefulPartitionedCall/functional_6_1/resnet50_1/conv2_block3_2_conv_1/Reshape"], "device": "/device:CPU:0", "attr": {"num_host_args": {"i": "0"}, "data_format": {"s": "TkhXQw=="}, "filter_format": {"s": "SFdJTw=="}, "fused_ops": {"list": {"s": ["Qmlhc0FkZA=="]}}, "num_args": {"i": "1"}, "strides": {"list": {"i": ["1", "1", "1", "1"]}}, "TArgs": {"list": {"type": ["DT_FLOAT"]}}, "padding": {"s": "U0FNRQ=="}, "use_cudnn_on_gpu": {"b": true}, "leakyrelu_alpha": {"f": 0.2}, "epsilon": {"f": 0.0}, "T": {"type": "DT_FLOAT"}, "explicit_paddings": {"list": {}}, "dilations": {"list": {"i": ["1", "1", "1", "1"]}}}}, {"name": "StatefulPartitionedCall/functional_6_1/resnet50_1/conv2_block3_2_bn_1/batchnorm/mul_1", "op": "Mul", "input": ["StatefulPartitionedCall/functional_6_1/resnet50_1/conv2_block3_2_conv_1/add", "StatefulPartitionedCall/functional_6_1/resnet50_1/conv2_block3_2_bn_1/batchnorm/mul"], "attr": {"T": {"type": "DT_FLOAT"}}}, {"name": "StatefulPartitionedCall/functional_6_1/resnet50_1/conv2_block3_2_bn_1/batchnorm/add_1", "op": "AddV2", "input": ["StatefulPartitionedCall/functional_6_1/resnet50_1/conv2_block3_2_bn_1/batchnorm/mul_1", "StatefulPartitionedCall/functional_6_1/resnet50_1/conv2_block3_2_bn_1/batchnorm/sub"], "attr": {"T": {"type": "DT_FLOAT"}}}, {"name": "StatefulPartitionedCall/functional_6_1/resnet50_1/conv2_block3_2_relu_1/Relu", "op": "Relu", "input": ["StatefulPartitionedCall/functional_6_1/resnet50_1/conv2_block3_2_bn_1/batchnorm/add_1"], "attr": {"T": {"type": "DT_FLOAT"}}}, {"name": "StatefulPartitionedCall/functional_6_1/resnet50_1/conv2_block3_3_conv_1/add", "op": "_FusedConv2D", "input": ["StatefulPartitionedCall/functional_6_1/resnet50_1/conv2_block3_2_relu_1/Relu", "StatefulPartitionedCall/functional_6_1/resnet50_1/conv2_block3_3_conv_1/convolution/ReadVariableOp", "StatefulPartitionedCall/functional_6_1/resnet50_1/conv2_block3_3_conv_1/Reshape"], "device": "/device:CPU:0", "attr": {"num_host_args": {"i": "0"}, "data_format": {"s": "TkhXQw=="}, "filter_format": {"s": "SFdJTw=="}, "fused_ops": {"list": {"s": ["Qmlhc0FkZA=="]}}, "num_args": {"i": "1"}, "strides": {"list": {"i": ["1", "1", "1", "1"]}}, "TArgs": {"list": {"type": ["DT_FLOAT"]}}, "padding": {"s": "VkFMSUQ="}, "use_cudnn_on_gpu": {"b": true}, "leakyrelu_alpha": {"f": 0.2}, "epsilon": {"f": 0.0}, "T": {"type": "DT_FLOAT"}, "explicit_paddings": {"list": {}}, "dilations": {"list": {"i": ["1", "1", "1", "1"]}}}}, {"name": "StatefulPartitionedCall/functional_6_1/resnet50_1/conv2_block3_3_bn_1/batchnorm/mul_1", "op": "Mul", "input": ["StatefulPartitionedCall/functional_6_1/resnet50_1/conv2_block3_3_conv_1/add", "StatefulPartitionedCall/functional_6_1/resnet50_1/conv2_block3_3_bn_1/batchnorm/mul"], "attr": {"T": {"type": "DT_FLOAT"}}}, {"name": "StatefulPartitionedCall/functional_6_1/resnet50_1/conv2_block3_3_bn_1/batchnorm/add_1", "op": "AddV2", "input": ["StatefulPartitionedCall/functional_6_1/resnet50_1/conv2_block3_3_bn_1/batchnorm/mul_1", "StatefulPartitionedCall/functional_6_1/resnet50_1/conv2_block3_3_bn_1/batchnorm/sub"], "attr": {"T": {"type": "DT_FLOAT"}}}, {"name": "StatefulPartitionedCall/functional_6_1/resnet50_1/conv2_block3_add_1/Add", "op": "AddV2", "input": ["StatefulPartitionedCall/functional_6_1/resnet50_1/conv2_block2_out_1/Relu", "StatefulPartitionedCall/functional_6_1/resnet50_1/conv2_block3_3_bn_1/batchnorm/add_1"], "attr": {"T": {"type": "DT_FLOAT"}}}, {"name": "StatefulPartitionedCall/functional_6_1/resnet50_1/conv2_block3_out_1/Relu", "op": "Relu", "input": ["StatefulPartitionedCall/functional_6_1/resnet50_1/conv2_block3_add_1/Add"], "attr": {"T": {"type": "DT_FLOAT"}}}, {"name": "StatefulPartitionedCall/functional_6_1/resnet50_1/conv3_block1_0_conv_1/add", "op": "_FusedConv2D", "input": ["StatefulPartitionedCall/functional_6_1/resnet50_1/conv2_block3_out_1/Relu", "StatefulPartitionedCall/functional_6_1/resnet50_1/conv3_block1_0_conv_1/convolution/ReadVariableOp", "StatefulPartitionedCall/functional_6_1/resnet50_1/conv3_block1_0_conv_1/Reshape"], "device": "/device:CPU:0", "attr": {"num_host_args": {"i": "0"}, "data_format": {"s": "TkhXQw=="}, "filter_format": {"s": "SFdJTw=="}, "strides": {"list": {"i": ["1", "2", "2", "1"]}}, "num_args": {"i": "1"}, "fused_ops": {"list": {"s": ["Qmlhc0FkZA=="]}}, "TArgs": {"list": {"type": ["DT_FLOAT"]}}, "padding": {"s": "VkFMSUQ="}, "use_cudnn_on_gpu": {"b": true}, "leakyrelu_alpha": {"f": 0.2}, "epsilon": {"f": 0.0}, "T": {"type": "DT_FLOAT"}, "explicit_paddings": {"list": {}}, "dilations": {"list": {"i": ["1", "1", "1", "1"]}}}}, {"name": "StatefulPartitionedCall/functional_6_1/resnet50_1/conv3_block1_1_conv_1/add", "op": "_FusedConv2D", "input": ["StatefulPartitionedCall/functional_6_1/resnet50_1/conv2_block3_out_1/Relu", "StatefulPartitionedCall/functional_6_1/resnet50_1/conv3_block1_1_conv_1/convolution/ReadVariableOp", "StatefulPartitionedCall/functional_6_1/resnet50_1/conv3_block1_1_conv_1/Reshape"], "device": "/device:CPU:0", "attr": {"num_host_args": {"i": "0"}, "data_format": {"s": "TkhXQw=="}, "filter_format": {"s": "SFdJTw=="}, "fused_ops": {"list": {"s": ["Qmlhc0FkZA=="]}}, "num_args": {"i": "1"}, "strides": {"list": {"i": ["1", "2", "2", "1"]}}, "TArgs": {"list": {"type": ["DT_FLOAT"]}}, "padding": {"s": "VkFMSUQ="}, "use_cudnn_on_gpu": {"b": true}, "leakyrelu_alpha": {"f": 0.2}, "epsilon": {"f": 0.0}, "T": {"type": "DT_FLOAT"}, "explicit_paddings": {"list": {}}, "dilations": {"list": {"i": ["1", "1", "1", "1"]}}}}, {"name": "StatefulPartitionedCall/functional_6_1/resnet50_1/conv3_block1_0_bn_1/batchnorm/mul_1", "op": "Mul", "input": ["StatefulPartitionedCall/functional_6_1/resnet50_1/conv3_block1_0_conv_1/add", "StatefulPartitionedCall/functional_6_1/resnet50_1/conv3_block1_0_bn_1/batchnorm/mul"], "attr": {"T": {"type": "DT_FLOAT"}}}, {"name": "StatefulPartitionedCall/functional_6_1/resnet50_1/conv3_block1_1_bn_1/batchnorm/mul_1", "op": "Mul", "input": ["StatefulPartitionedCall/functional_6_1/resnet50_1/conv3_block1_1_conv_1/add", "StatefulPartitionedCall/functional_6_1/resnet50_1/conv3_block1_1_bn_1/batchnorm/mul"], "attr": {"T": {"type": "DT_FLOAT"}}}, {"name": "StatefulPartitionedCall/functional_6_1/resnet50_1/conv3_block1_0_bn_1/batchnorm/add_1", "op": "AddV2", "input": ["StatefulPartitionedCall/functional_6_1/resnet50_1/conv3_block1_0_bn_1/batchnorm/mul_1", "StatefulPartitionedCall/functional_6_1/resnet50_1/conv3_block1_0_bn_1/batchnorm/sub"], "attr": {"T": {"type": "DT_FLOAT"}}}, {"name": "StatefulPartitionedCall/functional_6_1/resnet50_1/conv3_block1_1_bn_1/batchnorm/add_1", "op": "AddV2", "input": ["StatefulPartitionedCall/functional_6_1/resnet50_1/conv3_block1_1_bn_1/batchnorm/mul_1", "StatefulPartitionedCall/functional_6_1/resnet50_1/conv3_block1_1_bn_1/batchnorm/sub"], "attr": {"T": {"type": "DT_FLOAT"}}}, {"name": "StatefulPartitionedCall/functional_6_1/resnet50_1/conv3_block1_1_relu_1/Relu", "op": "Relu", "input": ["StatefulPartitionedCall/functional_6_1/resnet50_1/conv3_block1_1_bn_1/batchnorm/add_1"], "attr": {"T": {"type": "DT_FLOAT"}}}, {"name": "StatefulPartitionedCall/functional_6_1/resnet50_1/conv3_block1_2_conv_1/add", "op": "_FusedConv2D", "input": ["StatefulPartitionedCall/functional_6_1/resnet50_1/conv3_block1_1_relu_1/Relu", "StatefulPartitionedCall/functional_6_1/resnet50_1/conv3_block1_2_conv_1/convolution/ReadVariableOp", "StatefulPartitionedCall/functional_6_1/resnet50_1/conv3_block1_2_conv_1/Reshape"], "device": "/device:CPU:0", "attr": {"num_host_args": {"i": "0"}, "data_format": {"s": "TkhXQw=="}, "filter_format": {"s": "SFdJTw=="}, "strides": {"list": {"i": ["1", "1", "1", "1"]}}, "num_args": {"i": "1"}, "fused_ops": {"list": {"s": ["Qmlhc0FkZA=="]}}, "TArgs": {"list": {"type": ["DT_FLOAT"]}}, "padding": {"s": "U0FNRQ=="}, "use_cudnn_on_gpu": {"b": true}, "leakyrelu_alpha": {"f": 0.2}, "epsilon": {"f": 0.0}, "T": {"type": "DT_FLOAT"}, "explicit_paddings": {"list": {}}, "dilations": {"list": {"i": ["1", "1", "1", "1"]}}}}, {"name": "StatefulPartitionedCall/functional_6_1/resnet50_1/conv3_block1_2_bn_1/batchnorm/mul_1", "op": "Mul", "input": ["StatefulPartitionedCall/functional_6_1/resnet50_1/conv3_block1_2_conv_1/add", "StatefulPartitionedCall/functional_6_1/resnet50_1/conv3_block1_2_bn_1/batchnorm/mul"], "attr": {"T": {"type": "DT_FLOAT"}}}, {"name": "StatefulPartitionedCall/functional_6_1/resnet50_1/conv3_block1_2_bn_1/batchnorm/add_1", "op": "AddV2", "input": ["StatefulPartitionedCall/functional_6_1/resnet50_1/conv3_block1_2_bn_1/batchnorm/mul_1", "StatefulPartitionedCall/functional_6_1/resnet50_1/conv3_block1_2_bn_1/batchnorm/sub"], "attr": {"T": {"type": "DT_FLOAT"}}}, {"name": "StatefulPartitionedCall/functional_6_1/resnet50_1/conv3_block1_2_relu_1/Relu", "op": "Relu", "input": ["StatefulPartitionedCall/functional_6_1/resnet50_1/conv3_block1_2_bn_1/batchnorm/add_1"], "attr": {"T": {"type": "DT_FLOAT"}}}, {"name": "StatefulPartitionedCall/functional_6_1/resnet50_1/conv3_block1_3_conv_1/add", "op": "_FusedConv2D", "input": ["StatefulPartitionedCall/functional_6_1/resnet50_1/conv3_block1_2_relu_1/Relu", "StatefulPartitionedCall/functional_6_1/resnet50_1/conv3_block1_3_conv_1/convolution/ReadVariableOp", "StatefulPartitionedCall/functional_6_1/resnet50_1/conv3_block1_3_conv_1/Reshape"], "device": "/device:CPU:0", "attr": {"num_host_args": {"i": "0"}, "data_format": {"s": "TkhXQw=="}, "filter_format": {"s": "SFdJTw=="}, "fused_ops": {"list": {"s": ["Qmlhc0FkZA=="]}}, "num_args": {"i": "1"}, "strides": {"list": {"i": ["1", "1", "1", "1"]}}, "TArgs": {"list": {"type": ["DT_FLOAT"]}}, "padding": {"s": "VkFMSUQ="}, "use_cudnn_on_gpu": {"b": true}, "leakyrelu_alpha": {"f": 0.2}, "epsilon": {"f": 0.0}, "T": {"type": "DT_FLOAT"}, "explicit_paddings": {"list": {}}, "dilations": {"list": {"i": ["1", "1", "1", "1"]}}}}, {"name": "StatefulPartitionedCall/functional_6_1/resnet50_1/conv3_block1_3_bn_1/batchnorm/mul_1", "op": "Mul", "input": ["StatefulPartitionedCall/functional_6_1/resnet50_1/conv3_block1_3_conv_1/add", "StatefulPartitionedCall/functional_6_1/resnet50_1/conv3_block1_3_bn_1/batchnorm/mul"], "attr": {"T": {"type": "DT_FLOAT"}}}, {"name": "StatefulPartitionedCall/functional_6_1/resnet50_1/conv3_block1_3_bn_1/batchnorm/add_1", "op": "AddV2", "input": ["StatefulPartitionedCall/functional_6_1/resnet50_1/conv3_block1_3_bn_1/batchnorm/mul_1", "StatefulPartitionedCall/functional_6_1/resnet50_1/conv3_block1_3_bn_1/batchnorm/sub"], "attr": {"T": {"type": "DT_FLOAT"}}}, {"name": "StatefulPartitionedCall/functional_6_1/resnet50_1/conv3_block1_add_1/Add", "op": "AddV2", "input": ["StatefulPartitionedCall/functional_6_1/resnet50_1/conv3_block1_0_bn_1/batchnorm/add_1", "StatefulPartitionedCall/functional_6_1/resnet50_1/conv3_block1_3_bn_1/batchnorm/add_1"], "attr": {"T": {"type": "DT_FLOAT"}}}, {"name": "StatefulPartitionedCall/functional_6_1/resnet50_1/conv3_block1_out_1/Relu", "op": "Relu", "input": ["StatefulPartitionedCall/functional_6_1/resnet50_1/conv3_block1_add_1/Add"], "attr": {"T": {"type": "DT_FLOAT"}}}, {"name": "StatefulPartitionedCall/functional_6_1/resnet50_1/conv3_block2_1_conv_1/add", "op": "_FusedConv2D", "input": ["StatefulPartitionedCall/functional_6_1/resnet50_1/conv3_block1_out_1/Relu", "StatefulPartitionedCall/functional_6_1/resnet50_1/conv3_block2_1_conv_1/convolution/ReadVariableOp", "StatefulPartitionedCall/functional_6_1/resnet50_1/conv3_block2_1_conv_1/Reshape"], "device": "/device:CPU:0", "attr": {"num_host_args": {"i": "0"}, "data_format": {"s": "TkhXQw=="}, "filter_format": {"s": "SFdJTw=="}, "strides": {"list": {"i": ["1", "1", "1", "1"]}}, "num_args": {"i": "1"}, "fused_ops": {"list": {"s": ["Qmlhc0FkZA=="]}}, "TArgs": {"list": {"type": ["DT_FLOAT"]}}, "padding": {"s": "VkFMSUQ="}, "use_cudnn_on_gpu": {"b": true}, "leakyrelu_alpha": {"f": 0.2}, "epsilon": {"f": 0.0}, "T": {"type": "DT_FLOAT"}, "explicit_paddings": {"list": {}}, "dilations": {"list": {"i": ["1", "1", "1", "1"]}}}}, {"name": "StatefulPartitionedCall/functional_6_1/resnet50_1/conv3_block2_1_bn_1/batchnorm/mul_1", "op": "Mul", "input": ["StatefulPartitionedCall/functional_6_1/resnet50_1/conv3_block2_1_conv_1/add", "StatefulPartitionedCall/functional_6_1/resnet50_1/conv3_block2_1_bn_1/batchnorm/mul"], "attr": {"T": {"type": "DT_FLOAT"}}}, {"name": "StatefulPartitionedCall/functional_6_1/resnet50_1/conv3_block2_1_bn_1/batchnorm/add_1", "op": "AddV2", "input": ["StatefulPartitionedCall/functional_6_1/resnet50_1/conv3_block2_1_bn_1/batchnorm/mul_1", "StatefulPartitionedCall/functional_6_1/resnet50_1/conv3_block2_1_bn_1/batchnorm/sub"], "attr": {"T": {"type": "DT_FLOAT"}}}, {"name": "StatefulPartitionedCall/functional_6_1/resnet50_1/conv3_block2_1_relu_1/Relu", "op": "Relu", "input": ["StatefulPartitionedCall/functional_6_1/resnet50_1/conv3_block2_1_bn_1/batchnorm/add_1"], "attr": {"T": {"type": "DT_FLOAT"}}}, {"name": "StatefulPartitionedCall/functional_6_1/resnet50_1/conv3_block2_2_conv_1/add", "op": "_FusedConv2D", "input": ["StatefulPartitionedCall/functional_6_1/resnet50_1/conv3_block2_1_relu_1/Relu", "StatefulPartitionedCall/functional_6_1/resnet50_1/conv3_block2_2_conv_1/convolution/ReadVariableOp", "StatefulPartitionedCall/functional_6_1/resnet50_1/conv3_block2_2_conv_1/Reshape"], "device": "/device:CPU:0", "attr": {"num_host_args": {"i": "0"}, "data_format": {"s": "TkhXQw=="}, "filter_format": {"s": "SFdJTw=="}, "strides": {"list": {"i": ["1", "1", "1", "1"]}}, "num_args": {"i": "1"}, "fused_ops": {"list": {"s": ["Qmlhc0FkZA=="]}}, "TArgs": {"list": {"type": ["DT_FLOAT"]}}, "padding": {"s": "U0FNRQ=="}, "use_cudnn_on_gpu": {"b": true}, "leakyrelu_alpha": {"f": 0.2}, "epsilon": {"f": 0.0}, "T": {"type": "DT_FLOAT"}, "explicit_paddings": {"list": {}}, "dilations": {"list": {"i": ["1", "1", "1", "1"]}}}}, {"name": "StatefulPartitionedCall/functional_6_1/resnet50_1/conv3_block2_2_bn_1/batchnorm/mul_1", "op": "Mul", "input": ["StatefulPartitionedCall/functional_6_1/resnet50_1/conv3_block2_2_conv_1/add", "StatefulPartitionedCall/functional_6_1/resnet50_1/conv3_block2_2_bn_1/batchnorm/mul"], "attr": {"T": {"type": "DT_FLOAT"}}}, {"name": "StatefulPartitionedCall/functional_6_1/resnet50_1/conv3_block2_2_bn_1/batchnorm/add_1", "op": "AddV2", "input": ["StatefulPartitionedCall/functional_6_1/resnet50_1/conv3_block2_2_bn_1/batchnorm/mul_1", "StatefulPartitionedCall/functional_6_1/resnet50_1/conv3_block2_2_bn_1/batchnorm/sub"], "attr": {"T": {"type": "DT_FLOAT"}}}, {"name": "StatefulPartitionedCall/functional_6_1/resnet50_1/conv3_block2_2_relu_1/Relu", "op": "Relu", "input": ["StatefulPartitionedCall/functional_6_1/resnet50_1/conv3_block2_2_bn_1/batchnorm/add_1"], "attr": {"T": {"type": "DT_FLOAT"}}}, {"name": "StatefulPartitionedCall/functional_6_1/resnet50_1/conv3_block2_3_conv_1/add", "op": "_FusedConv2D", "input": ["StatefulPartitionedCall/functional_6_1/resnet50_1/conv3_block2_2_relu_1/Relu", "StatefulPartitionedCall/functional_6_1/resnet50_1/conv3_block2_3_conv_1/convolution/ReadVariableOp", "StatefulPartitionedCall/functional_6_1/resnet50_1/conv3_block2_3_conv_1/Reshape"], "device": "/device:CPU:0", "attr": {"num_host_args": {"i": "0"}, "data_format": {"s": "TkhXQw=="}, "filter_format": {"s": "SFdJTw=="}, "strides": {"list": {"i": ["1", "1", "1", "1"]}}, "num_args": {"i": "1"}, "fused_ops": {"list": {"s": ["Qmlhc0FkZA=="]}}, "TArgs": {"list": {"type": ["DT_FLOAT"]}}, "padding": {"s": "VkFMSUQ="}, "use_cudnn_on_gpu": {"b": true}, "leakyrelu_alpha": {"f": 0.2}, "epsilon": {"f": 0.0}, "T": {"type": "DT_FLOAT"}, "explicit_paddings": {"list": {}}, "dilations": {"list": {"i": ["1", "1", "1", "1"]}}}}, {"name": "StatefulPartitionedCall/functional_6_1/resnet50_1/conv3_block2_3_bn_1/batchnorm/mul_1", "op": "Mul", "input": ["StatefulPartitionedCall/functional_6_1/resnet50_1/conv3_block2_3_conv_1/add", "StatefulPartitionedCall/functional_6_1/resnet50_1/conv3_block2_3_bn_1/batchnorm/mul"], "attr": {"T": {"type": "DT_FLOAT"}}}, {"name": "StatefulPartitionedCall/functional_6_1/resnet50_1/conv3_block2_3_bn_1/batchnorm/add_1", "op": "AddV2", "input": ["StatefulPartitionedCall/functional_6_1/resnet50_1/conv3_block2_3_bn_1/batchnorm/mul_1", "StatefulPartitionedCall/functional_6_1/resnet50_1/conv3_block2_3_bn_1/batchnorm/sub"], "attr": {"T": {"type": "DT_FLOAT"}}}, {"name": "StatefulPartitionedCall/functional_6_1/resnet50_1/conv3_block2_add_1/Add", "op": "AddV2", "input": ["StatefulPartitionedCall/functional_6_1/resnet50_1/conv3_block1_out_1/Relu", "StatefulPartitionedCall/functional_6_1/resnet50_1/conv3_block2_3_bn_1/batchnorm/add_1"], "attr": {"T": {"type": "DT_FLOAT"}}}, {"name": "StatefulPartitionedCall/functional_6_1/resnet50_1/conv3_block2_out_1/Relu", "op": "Relu", "input": ["StatefulPartitionedCall/functional_6_1/resnet50_1/conv3_block2_add_1/Add"], "attr": {"T": {"type": "DT_FLOAT"}}}, {"name": "StatefulPartitionedCall/functional_6_1/resnet50_1/conv3_block3_1_conv_1/add", "op": "_FusedConv2D", "input": ["StatefulPartitionedCall/functional_6_1/resnet50_1/conv3_block2_out_1/Relu", "StatefulPartitionedCall/functional_6_1/resnet50_1/conv3_block3_1_conv_1/convolution/ReadVariableOp", "StatefulPartitionedCall/functional_6_1/resnet50_1/conv3_block3_1_conv_1/Reshape"], "device": "/device:CPU:0", "attr": {"num_host_args": {"i": "0"}, "data_format": {"s": "TkhXQw=="}, "filter_format": {"s": "SFdJTw=="}, "strides": {"list": {"i": ["1", "1", "1", "1"]}}, "num_args": {"i": "1"}, "fused_ops": {"list": {"s": ["Qmlhc0FkZA=="]}}, "TArgs": {"list": {"type": ["DT_FLOAT"]}}, "padding": {"s": "VkFMSUQ="}, "use_cudnn_on_gpu": {"b": true}, "leakyrelu_alpha": {"f": 0.2}, "epsilon": {"f": 0.0}, "T": {"type": "DT_FLOAT"}, "explicit_paddings": {"list": {}}, "dilations": {"list": {"i": ["1", "1", "1", "1"]}}}}, {"name": "StatefulPartitionedCall/functional_6_1/resnet50_1/conv3_block3_1_bn_1/batchnorm/mul_1", "op": "Mul", "input": ["StatefulPartitionedCall/functional_6_1/resnet50_1/conv3_block3_1_conv_1/add", "StatefulPartitionedCall/functional_6_1/resnet50_1/conv3_block3_1_bn_1/batchnorm/mul"], "attr": {"T": {"type": "DT_FLOAT"}}}, {"name": "StatefulPartitionedCall/functional_6_1/resnet50_1/conv3_block3_1_bn_1/batchnorm/add_1", "op": "AddV2", "input": ["StatefulPartitionedCall/functional_6_1/resnet50_1/conv3_block3_1_bn_1/batchnorm/mul_1", "StatefulPartitionedCall/functional_6_1/resnet50_1/conv3_block3_1_bn_1/batchnorm/sub"], "attr": {"T": {"type": "DT_FLOAT"}}}, {"name": "StatefulPartitionedCall/functional_6_1/resnet50_1/conv3_block3_1_relu_1/Relu", "op": "Relu", "input": ["StatefulPartitionedCall/functional_6_1/resnet50_1/conv3_block3_1_bn_1/batchnorm/add_1"], "attr": {"T": {"type": "DT_FLOAT"}}}, {"name": "StatefulPartitionedCall/functional_6_1/resnet50_1/conv3_block3_2_conv_1/add", "op": "_FusedConv2D", "input": ["StatefulPartitionedCall/functional_6_1/resnet50_1/conv3_block3_1_relu_1/Relu", "StatefulPartitionedCall/functional_6_1/resnet50_1/conv3_block3_2_conv_1/convolution/ReadVariableOp", "StatefulPartitionedCall/functional_6_1/resnet50_1/conv3_block3_2_conv_1/Reshape"], "device": "/device:CPU:0", "attr": {"num_host_args": {"i": "0"}, "data_format": {"s": "TkhXQw=="}, "filter_format": {"s": "SFdJTw=="}, "strides": {"list": {"i": ["1", "1", "1", "1"]}}, "num_args": {"i": "1"}, "fused_ops": {"list": {"s": ["Qmlhc0FkZA=="]}}, "TArgs": {"list": {"type": ["DT_FLOAT"]}}, "padding": {"s": "U0FNRQ=="}, "use_cudnn_on_gpu": {"b": true}, "leakyrelu_alpha": {"f": 0.2}, "epsilon": {"f": 0.0}, "T": {"type": "DT_FLOAT"}, "explicit_paddings": {"list": {}}, "dilations": {"list": {"i": ["1", "1", "1", "1"]}}}}, {"name": "StatefulPartitionedCall/functional_6_1/resnet50_1/conv3_block3_2_bn_1/batchnorm/mul_1", "op": "Mul", "input": ["StatefulPartitionedCall/functional_6_1/resnet50_1/conv3_block3_2_conv_1/add", "StatefulPartitionedCall/functional_6_1/resnet50_1/conv3_block3_2_bn_1/batchnorm/mul"], "attr": {"T": {"type": "DT_FLOAT"}}}, {"name": "StatefulPartitionedCall/functional_6_1/resnet50_1/conv3_block3_2_bn_1/batchnorm/add_1", "op": "AddV2", "input": ["StatefulPartitionedCall/functional_6_1/resnet50_1/conv3_block3_2_bn_1/batchnorm/mul_1", "StatefulPartitionedCall/functional_6_1/resnet50_1/conv3_block3_2_bn_1/batchnorm/sub"], "attr": {"T": {"type": "DT_FLOAT"}}}, {"name": "StatefulPartitionedCall/functional_6_1/resnet50_1/conv3_block3_2_relu_1/Relu", "op": "Relu", "input": ["StatefulPartitionedCall/functional_6_1/resnet50_1/conv3_block3_2_bn_1/batchnorm/add_1"], "attr": {"T": {"type": "DT_FLOAT"}}}, {"name": "StatefulPartitionedCall/functional_6_1/resnet50_1/conv3_block3_3_conv_1/add", "op": "_FusedConv2D", "input": ["StatefulPartitionedCall/functional_6_1/resnet50_1/conv3_block3_2_relu_1/Relu", "StatefulPartitionedCall/functional_6_1/resnet50_1/conv3_block3_3_conv_1/convolution/ReadVariableOp", "StatefulPartitionedCall/functional_6_1/resnet50_1/conv3_block3_3_conv_1/Reshape"], "device": "/device:CPU:0", "attr": {"num_host_args": {"i": "0"}, "data_format": {"s": "TkhXQw=="}, "filter_format": {"s": "SFdJTw=="}, "fused_ops": {"list": {"s": ["Qmlhc0FkZA=="]}}, "num_args": {"i": "1"}, "strides": {"list": {"i": ["1", "1", "1", "1"]}}, "TArgs": {"list": {"type": ["DT_FLOAT"]}}, "padding": {"s": "VkFMSUQ="}, "use_cudnn_on_gpu": {"b": true}, "leakyrelu_alpha": {"f": 0.2}, "epsilon": {"f": 0.0}, "T": {"type": "DT_FLOAT"}, "explicit_paddings": {"list": {}}, "dilations": {"list": {"i": ["1", "1", "1", "1"]}}}}, {"name": "StatefulPartitionedCall/functional_6_1/resnet50_1/conv3_block3_3_bn_1/batchnorm/mul_1", "op": "Mul", "input": ["StatefulPartitionedCall/functional_6_1/resnet50_1/conv3_block3_3_conv_1/add", "StatefulPartitionedCall/functional_6_1/resnet50_1/conv3_block3_3_bn_1/batchnorm/mul"], "attr": {"T": {"type": "DT_FLOAT"}}}, {"name": "StatefulPartitionedCall/functional_6_1/resnet50_1/conv3_block3_3_bn_1/batchnorm/add_1", "op": "AddV2", "input": ["StatefulPartitionedCall/functional_6_1/resnet50_1/conv3_block3_3_bn_1/batchnorm/mul_1", "StatefulPartitionedCall/functional_6_1/resnet50_1/conv3_block3_3_bn_1/batchnorm/sub"], "attr": {"T": {"type": "DT_FLOAT"}}}, {"name": "StatefulPartitionedCall/functional_6_1/resnet50_1/conv3_block3_add_1/Add", "op": "AddV2", "input": ["StatefulPartitionedCall/functional_6_1/resnet50_1/conv3_block2_out_1/Relu", "StatefulPartitionedCall/functional_6_1/resnet50_1/conv3_block3_3_bn_1/batchnorm/add_1"], "attr": {"T": {"type": "DT_FLOAT"}}}, {"name": "StatefulPartitionedCall/functional_6_1/resnet50_1/conv3_block3_out_1/Relu", "op": "Relu", "input": ["StatefulPartitionedCall/functional_6_1/resnet50_1/conv3_block3_add_1/Add"], "attr": {"T": {"type": "DT_FLOAT"}}}, {"name": "StatefulPartitionedCall/functional_6_1/resnet50_1/conv3_block4_1_conv_1/add", "op": "_FusedConv2D", "input": ["StatefulPartitionedCall/functional_6_1/resnet50_1/conv3_block3_out_1/Relu", "StatefulPartitionedCall/functional_6_1/resnet50_1/conv3_block4_1_conv_1/convolution/ReadVariableOp", "StatefulPartitionedCall/functional_6_1/resnet50_1/conv3_block4_1_conv_1/Reshape"], "device": "/device:CPU:0", "attr": {"num_host_args": {"i": "0"}, "data_format": {"s": "TkhXQw=="}, "filter_format": {"s": "SFdJTw=="}, "strides": {"list": {"i": ["1", "1", "1", "1"]}}, "num_args": {"i": "1"}, "fused_ops": {"list": {"s": ["Qmlhc0FkZA=="]}}, "TArgs": {"list": {"type": ["DT_FLOAT"]}}, "padding": {"s": "VkFMSUQ="}, "use_cudnn_on_gpu": {"b": true}, "leakyrelu_alpha": {"f": 0.2}, "epsilon": {"f": 0.0}, "T": {"type": "DT_FLOAT"}, "explicit_paddings": {"list": {}}, "dilations": {"list": {"i": ["1", "1", "1", "1"]}}}}, {"name": "StatefulPartitionedCall/functional_6_1/resnet50_1/conv3_block4_1_bn_1/batchnorm/mul_1", "op": "Mul", "input": ["StatefulPartitionedCall/functional_6_1/resnet50_1/conv3_block4_1_conv_1/add", "StatefulPartitionedCall/functional_6_1/resnet50_1/conv3_block4_1_bn_1/batchnorm/mul"], "attr": {"T": {"type": "DT_FLOAT"}}}, {"name": "StatefulPartitionedCall/functional_6_1/resnet50_1/conv3_block4_1_bn_1/batchnorm/add_1", "op": "AddV2", "input": ["StatefulPartitionedCall/functional_6_1/resnet50_1/conv3_block4_1_bn_1/batchnorm/mul_1", "StatefulPartitionedCall/functional_6_1/resnet50_1/conv3_block4_1_bn_1/batchnorm/sub"], "attr": {"T": {"type": "DT_FLOAT"}}}, {"name": "StatefulPartitionedCall/functional_6_1/resnet50_1/conv3_block4_1_relu_1/Relu", "op": "Relu", "input": ["StatefulPartitionedCall/functional_6_1/resnet50_1/conv3_block4_1_bn_1/batchnorm/add_1"], "attr": {"T": {"type": "DT_FLOAT"}}}, {"name": "StatefulPartitionedCall/functional_6_1/resnet50_1/conv3_block4_2_conv_1/add", "op": "_FusedConv2D", "input": ["StatefulPartitionedCall/functional_6_1/resnet50_1/conv3_block4_1_relu_1/Relu", "StatefulPartitionedCall/functional_6_1/resnet50_1/conv3_block4_2_conv_1/convolution/ReadVariableOp", "StatefulPartitionedCall/functional_6_1/resnet50_1/conv3_block4_2_conv_1/Reshape"], "device": "/device:CPU:0", "attr": {"num_host_args": {"i": "0"}, "data_format": {"s": "TkhXQw=="}, "filter_format": {"s": "SFdJTw=="}, "fused_ops": {"list": {"s": ["Qmlhc0FkZA=="]}}, "num_args": {"i": "1"}, "strides": {"list": {"i": ["1", "1", "1", "1"]}}, "TArgs": {"list": {"type": ["DT_FLOAT"]}}, "padding": {"s": "U0FNRQ=="}, "use_cudnn_on_gpu": {"b": true}, "leakyrelu_alpha": {"f": 0.2}, "epsilon": {"f": 0.0}, "T": {"type": "DT_FLOAT"}, "explicit_paddings": {"list": {}}, "dilations": {"list": {"i": ["1", "1", "1", "1"]}}}}, {"name": "StatefulPartitionedCall/functional_6_1/resnet50_1/conv3_block4_2_bn_1/batchnorm/mul_1", "op": "Mul", "input": ["StatefulPartitionedCall/functional_6_1/resnet50_1/conv3_block4_2_conv_1/add", "StatefulPartitionedCall/functional_6_1/resnet50_1/conv3_block4_2_bn_1/batchnorm/mul"], "attr": {"T": {"type": "DT_FLOAT"}}}, {"name": "StatefulPartitionedCall/functional_6_1/resnet50_1/conv3_block4_2_bn_1/batchnorm/add_1", "op": "AddV2", "input": ["StatefulPartitionedCall/functional_6_1/resnet50_1/conv3_block4_2_bn_1/batchnorm/mul_1", "StatefulPartitionedCall/functional_6_1/resnet50_1/conv3_block4_2_bn_1/batchnorm/sub"], "attr": {"T": {"type": "DT_FLOAT"}}}, {"name": "StatefulPartitionedCall/functional_6_1/resnet50_1/conv3_block4_2_relu_1/Relu", "op": "Relu", "input": ["StatefulPartitionedCall/functional_6_1/resnet50_1/conv3_block4_2_bn_1/batchnorm/add_1"], "attr": {"T": {"type": "DT_FLOAT"}}}, {"name": "StatefulPartitionedCall/functional_6_1/resnet50_1/conv3_block4_3_conv_1/add", "op": "_FusedConv2D", "input": ["StatefulPartitionedCall/functional_6_1/resnet50_1/conv3_block4_2_relu_1/Relu", "StatefulPartitionedCall/functional_6_1/resnet50_1/conv3_block4_3_conv_1/convolution/ReadVariableOp", "StatefulPartitionedCall/functional_6_1/resnet50_1/conv3_block4_3_conv_1/Reshape"], "device": "/device:CPU:0", "attr": {"num_host_args": {"i": "0"}, "data_format": {"s": "TkhXQw=="}, "filter_format": {"s": "SFdJTw=="}, "fused_ops": {"list": {"s": ["Qmlhc0FkZA=="]}}, "num_args": {"i": "1"}, "strides": {"list": {"i": ["1", "1", "1", "1"]}}, "TArgs": {"list": {"type": ["DT_FLOAT"]}}, "padding": {"s": "VkFMSUQ="}, "use_cudnn_on_gpu": {"b": true}, "leakyrelu_alpha": {"f": 0.2}, "epsilon": {"f": 0.0}, "T": {"type": "DT_FLOAT"}, "explicit_paddings": {"list": {}}, "dilations": {"list": {"i": ["1", "1", "1", "1"]}}}}, {"name": "StatefulPartitionedCall/functional_6_1/resnet50_1/conv3_block4_3_bn_1/batchnorm/mul_1", "op": "Mul", "input": ["StatefulPartitionedCall/functional_6_1/resnet50_1/conv3_block4_3_conv_1/add", "StatefulPartitionedCall/functional_6_1/resnet50_1/conv3_block4_3_bn_1/batchnorm/mul"], "attr": {"T": {"type": "DT_FLOAT"}}}, {"name": "StatefulPartitionedCall/functional_6_1/resnet50_1/conv3_block4_3_bn_1/batchnorm/add_1", "op": "AddV2", "input": ["StatefulPartitionedCall/functional_6_1/resnet50_1/conv3_block4_3_bn_1/batchnorm/mul_1", "StatefulPartitionedCall/functional_6_1/resnet50_1/conv3_block4_3_bn_1/batchnorm/sub"], "attr": {"T": {"type": "DT_FLOAT"}}}, {"name": "StatefulPartitionedCall/functional_6_1/resnet50_1/conv3_block4_add_1/Add", "op": "AddV2", "input": ["StatefulPartitionedCall/functional_6_1/resnet50_1/conv3_block3_out_1/Relu", "StatefulPartitionedCall/functional_6_1/resnet50_1/conv3_block4_3_bn_1/batchnorm/add_1"], "attr": {"T": {"type": "DT_FLOAT"}}}, {"name": "StatefulPartitionedCall/functional_6_1/resnet50_1/conv3_block4_out_1/Relu", "op": "Relu", "input": ["StatefulPartitionedCall/functional_6_1/resnet50_1/conv3_block4_add_1/Add"], "attr": {"T": {"type": "DT_FLOAT"}}}, {"name": "StatefulPartitionedCall/functional_6_1/resnet50_1/conv4_block1_0_conv_1/add", "op": "_FusedConv2D", "input": ["StatefulPartitionedCall/functional_6_1/resnet50_1/conv3_block4_out_1/Relu", "StatefulPartitionedCall/functional_6_1/resnet50_1/conv4_block1_0_conv_1/convolution/ReadVariableOp", "StatefulPartitionedCall/functional_6_1/resnet50_1/conv4_block1_0_conv_1/Reshape"], "device": "/device:CPU:0", "attr": {"num_host_args": {"i": "0"}, "data_format": {"s": "TkhXQw=="}, "filter_format": {"s": "SFdJTw=="}, "fused_ops": {"list": {"s": ["Qmlhc0FkZA=="]}}, "num_args": {"i": "1"}, "strides": {"list": {"i": ["1", "2", "2", "1"]}}, "TArgs": {"list": {"type": ["DT_FLOAT"]}}, "padding": {"s": "VkFMSUQ="}, "use_cudnn_on_gpu": {"b": true}, "leakyrelu_alpha": {"f": 0.2}, "epsilon": {"f": 0.0}, "T": {"type": "DT_FLOAT"}, "explicit_paddings": {"list": {}}, "dilations": {"list": {"i": ["1", "1", "1", "1"]}}}}, {"name": "StatefulPartitionedCall/functional_6_1/resnet50_1/conv4_block1_1_conv_1/add", "op": "_FusedConv2D", "input": ["StatefulPartitionedCall/functional_6_1/resnet50_1/conv3_block4_out_1/Relu", "StatefulPartitionedCall/functional_6_1/resnet50_1/conv4_block1_1_conv_1/convolution/ReadVariableOp", "StatefulPartitionedCall/functional_6_1/resnet50_1/conv4_block1_1_conv_1/Reshape"], "device": "/device:CPU:0", "attr": {"num_host_args": {"i": "0"}, "data_format": {"s": "TkhXQw=="}, "filter_format": {"s": "SFdJTw=="}, "strides": {"list": {"i": ["1", "2", "2", "1"]}}, "num_args": {"i": "1"}, "fused_ops": {"list": {"s": ["Qmlhc0FkZA=="]}}, "TArgs": {"list": {"type": ["DT_FLOAT"]}}, "padding": {"s": "VkFMSUQ="}, "use_cudnn_on_gpu": {"b": true}, "leakyrelu_alpha": {"f": 0.2}, "epsilon": {"f": 0.0}, "T": {"type": "DT_FLOAT"}, "explicit_paddings": {"list": {}}, "dilations": {"list": {"i": ["1", "1", "1", "1"]}}}}, {"name": "StatefulPartitionedCall/functional_6_1/resnet50_1/conv4_block1_0_bn_1/batchnorm/mul_1", "op": "Mul", "input": ["StatefulPartitionedCall/functional_6_1/resnet50_1/conv4_block1_0_conv_1/add", "StatefulPartitionedCall/functional_6_1/resnet50_1/conv4_block1_0_bn_1/batchnorm/mul"], "attr": {"T": {"type": "DT_FLOAT"}}}, {"name": "StatefulPartitionedCall/functional_6_1/resnet50_1/conv4_block1_1_bn_1/batchnorm/mul_1", "op": "Mul", "input": ["StatefulPartitionedCall/functional_6_1/resnet50_1/conv4_block1_1_conv_1/add", "StatefulPartitionedCall/functional_6_1/resnet50_1/conv4_block1_1_bn_1/batchnorm/mul"], "attr": {"T": {"type": "DT_FLOAT"}}}, {"name": "StatefulPartitionedCall/functional_6_1/resnet50_1/conv4_block1_0_bn_1/batchnorm/add_1", "op": "AddV2", "input": ["StatefulPartitionedCall/functional_6_1/resnet50_1/conv4_block1_0_bn_1/batchnorm/mul_1", "StatefulPartitionedCall/functional_6_1/resnet50_1/conv4_block1_0_bn_1/batchnorm/sub"], "attr": {"T": {"type": "DT_FLOAT"}}}, {"name": "StatefulPartitionedCall/functional_6_1/resnet50_1/conv4_block1_1_bn_1/batchnorm/add_1", "op": "AddV2", "input": ["StatefulPartitionedCall/functional_6_1/resnet50_1/conv4_block1_1_bn_1/batchnorm/mul_1", "StatefulPartitionedCall/functional_6_1/resnet50_1/conv4_block1_1_bn_1/batchnorm/sub"], "attr": {"T": {"type": "DT_FLOAT"}}}, {"name": "StatefulPartitionedCall/functional_6_1/resnet50_1/conv4_block1_1_relu_1/Relu", "op": "Relu", "input": ["StatefulPartitionedCall/functional_6_1/resnet50_1/conv4_block1_1_bn_1/batchnorm/add_1"], "attr": {"T": {"type": "DT_FLOAT"}}}, {"name": "StatefulPartitionedCall/functional_6_1/resnet50_1/conv4_block1_2_conv_1/add", "op": "_FusedConv2D", "input": ["StatefulPartitionedCall/functional_6_1/resnet50_1/conv4_block1_1_relu_1/Relu", "StatefulPartitionedCall/functional_6_1/resnet50_1/conv4_block1_2_conv_1/convolution/ReadVariableOp", "StatefulPartitionedCall/functional_6_1/resnet50_1/conv4_block1_2_conv_1/Reshape"], "device": "/device:CPU:0", "attr": {"num_host_args": {"i": "0"}, "data_format": {"s": "TkhXQw=="}, "filter_format": {"s": "SFdJTw=="}, "fused_ops": {"list": {"s": ["Qmlhc0FkZA=="]}}, "num_args": {"i": "1"}, "strides": {"list": {"i": ["1", "1", "1", "1"]}}, "TArgs": {"list": {"type": ["DT_FLOAT"]}}, "padding": {"s": "U0FNRQ=="}, "use_cudnn_on_gpu": {"b": true}, "leakyrelu_alpha": {"f": 0.2}, "epsilon": {"f": 0.0}, "T": {"type": "DT_FLOAT"}, "explicit_paddings": {"list": {}}, "dilations": {"list": {"i": ["1", "1", "1", "1"]}}}}, {"name": "StatefulPartitionedCall/functional_6_1/resnet50_1/conv4_block1_2_bn_1/batchnorm/mul_1", "op": "Mul", "input": ["StatefulPartitionedCall/functional_6_1/resnet50_1/conv4_block1_2_conv_1/add", "StatefulPartitionedCall/functional_6_1/resnet50_1/conv4_block1_2_bn_1/batchnorm/mul"], "attr": {"T": {"type": "DT_FLOAT"}}}, {"name": "StatefulPartitionedCall/functional_6_1/resnet50_1/conv4_block1_2_bn_1/batchnorm/add_1", "op": "AddV2", "input": ["StatefulPartitionedCall/functional_6_1/resnet50_1/conv4_block1_2_bn_1/batchnorm/mul_1", "StatefulPartitionedCall/functional_6_1/resnet50_1/conv4_block1_2_bn_1/batchnorm/sub"], "attr": {"T": {"type": "DT_FLOAT"}}}, {"name": "StatefulPartitionedCall/functional_6_1/resnet50_1/conv4_block1_2_relu_1/Relu", "op": "Relu", "input": ["StatefulPartitionedCall/functional_6_1/resnet50_1/conv4_block1_2_bn_1/batchnorm/add_1"], "attr": {"T": {"type": "DT_FLOAT"}}}, {"name": "StatefulPartitionedCall/functional_6_1/resnet50_1/conv4_block1_3_conv_1/add", "op": "_FusedConv2D", "input": ["StatefulPartitionedCall/functional_6_1/resnet50_1/conv4_block1_2_relu_1/Relu", "StatefulPartitionedCall/functional_6_1/resnet50_1/conv4_block1_3_conv_1/convolution/ReadVariableOp", "StatefulPartitionedCall/functional_6_1/resnet50_1/conv4_block1_3_conv_1/Reshape"], "device": "/device:CPU:0", "attr": {"num_host_args": {"i": "0"}, "data_format": {"s": "TkhXQw=="}, "filter_format": {"s": "SFdJTw=="}, "strides": {"list": {"i": ["1", "1", "1", "1"]}}, "num_args": {"i": "1"}, "fused_ops": {"list": {"s": ["Qmlhc0FkZA=="]}}, "TArgs": {"list": {"type": ["DT_FLOAT"]}}, "padding": {"s": "VkFMSUQ="}, "use_cudnn_on_gpu": {"b": true}, "leakyrelu_alpha": {"f": 0.2}, "epsilon": {"f": 0.0}, "T": {"type": "DT_FLOAT"}, "explicit_paddings": {"list": {}}, "dilations": {"list": {"i": ["1", "1", "1", "1"]}}}}, {"name": "StatefulPartitionedCall/functional_6_1/resnet50_1/conv4_block1_3_bn_1/batchnorm/mul_1", "op": "Mul", "input": ["StatefulPartitionedCall/functional_6_1/resnet50_1/conv4_block1_3_conv_1/add", "StatefulPartitionedCall/functional_6_1/resnet50_1/conv4_block1_3_bn_1/batchnorm/mul"], "attr": {"T": {"type": "DT_FLOAT"}}}, {"name": "StatefulPartitionedCall/functional_6_1/resnet50_1/conv4_block1_3_bn_1/batchnorm/add_1", "op": "AddV2", "input": ["StatefulPartitionedCall/functional_6_1/resnet50_1/conv4_block1_3_bn_1/batchnorm/mul_1", "StatefulPartitionedCall/functional_6_1/resnet50_1/conv4_block1_3_bn_1/batchnorm/sub"], "attr": {"T": {"type": "DT_FLOAT"}}}, {"name": "StatefulPartitionedCall/functional_6_1/resnet50_1/conv4_block1_add_1/Add", "op": "AddV2", "input": ["StatefulPartitionedCall/functional_6_1/resnet50_1/conv4_block1_0_bn_1/batchnorm/add_1", "StatefulPartitionedCall/functional_6_1/resnet50_1/conv4_block1_3_bn_1/batchnorm/add_1"], "attr": {"T": {"type": "DT_FLOAT"}}}, {"name": "StatefulPartitionedCall/functional_6_1/resnet50_1/conv4_block1_out_1/Relu", "op": "Relu", "input": ["StatefulPartitionedCall/functional_6_1/resnet50_1/conv4_block1_add_1/Add"], "attr": {"T": {"type": "DT_FLOAT"}}}, {"name": "StatefulPartitionedCall/functional_6_1/resnet50_1/conv4_block2_1_conv_1/add", "op": "_FusedConv2D", "input": ["StatefulPartitionedCall/functional_6_1/resnet50_1/conv4_block1_out_1/Relu", "StatefulPartitionedCall/functional_6_1/resnet50_1/conv4_block2_1_conv_1/convolution/ReadVariableOp", "StatefulPartitionedCall/functional_6_1/resnet50_1/conv4_block2_1_conv_1/Reshape"], "device": "/device:CPU:0", "attr": {"num_host_args": {"i": "0"}, "data_format": {"s": "TkhXQw=="}, "filter_format": {"s": "SFdJTw=="}, "strides": {"list": {"i": ["1", "1", "1", "1"]}}, "num_args": {"i": "1"}, "fused_ops": {"list": {"s": ["Qmlhc0FkZA=="]}}, "TArgs": {"list": {"type": ["DT_FLOAT"]}}, "padding": {"s": "VkFMSUQ="}, "use_cudnn_on_gpu": {"b": true}, "leakyrelu_alpha": {"f": 0.2}, "epsilon": {"f": 0.0}, "T": {"type": "DT_FLOAT"}, "explicit_paddings": {"list": {}}, "dilations": {"list": {"i": ["1", "1", "1", "1"]}}}}, {"name": "StatefulPartitionedCall/functional_6_1/resnet50_1/conv4_block2_1_bn_1/batchnorm/mul_1", "op": "Mul", "input": ["StatefulPartitionedCall/functional_6_1/resnet50_1/conv4_block2_1_conv_1/add", "StatefulPartitionedCall/functional_6_1/resnet50_1/conv4_block2_1_bn_1/batchnorm/mul"], "attr": {"T": {"type": "DT_FLOAT"}}}, {"name": "StatefulPartitionedCall/functional_6_1/resnet50_1/conv4_block2_1_bn_1/batchnorm/add_1", "op": "AddV2", "input": ["StatefulPartitionedCall/functional_6_1/resnet50_1/conv4_block2_1_bn_1/batchnorm/mul_1", "StatefulPartitionedCall/functional_6_1/resnet50_1/conv4_block2_1_bn_1/batchnorm/sub"], "attr": {"T": {"type": "DT_FLOAT"}}}, {"name": "StatefulPartitionedCall/functional_6_1/resnet50_1/conv4_block2_1_relu_1/Relu", "op": "Relu", "input": ["StatefulPartitionedCall/functional_6_1/resnet50_1/conv4_block2_1_bn_1/batchnorm/add_1"], "attr": {"T": {"type": "DT_FLOAT"}}}, {"name": "StatefulPartitionedCall/functional_6_1/resnet50_1/conv4_block2_2_conv_1/add", "op": "_FusedConv2D", "input": ["StatefulPartitionedCall/functional_6_1/resnet50_1/conv4_block2_1_relu_1/Relu", "StatefulPartitionedCall/functional_6_1/resnet50_1/conv4_block2_2_conv_1/convolution/ReadVariableOp", "StatefulPartitionedCall/functional_6_1/resnet50_1/conv4_block2_2_conv_1/Reshape"], "device": "/device:CPU:0", "attr": {"num_host_args": {"i": "0"}, "data_format": {"s": "TkhXQw=="}, "filter_format": {"s": "SFdJTw=="}, "strides": {"list": {"i": ["1", "1", "1", "1"]}}, "num_args": {"i": "1"}, "fused_ops": {"list": {"s": ["Qmlhc0FkZA=="]}}, "TArgs": {"list": {"type": ["DT_FLOAT"]}}, "padding": {"s": "U0FNRQ=="}, "use_cudnn_on_gpu": {"b": true}, "leakyrelu_alpha": {"f": 0.2}, "epsilon": {"f": 0.0}, "T": {"type": "DT_FLOAT"}, "explicit_paddings": {"list": {}}, "dilations": {"list": {"i": ["1", "1", "1", "1"]}}}}, {"name": "StatefulPartitionedCall/functional_6_1/resnet50_1/conv4_block2_2_bn_1/batchnorm/mul_1", "op": "Mul", "input": ["StatefulPartitionedCall/functional_6_1/resnet50_1/conv4_block2_2_conv_1/add", "StatefulPartitionedCall/functional_6_1/resnet50_1/conv4_block2_2_bn_1/batchnorm/mul"], "attr": {"T": {"type": "DT_FLOAT"}}}, {"name": "StatefulPartitionedCall/functional_6_1/resnet50_1/conv4_block2_2_bn_1/batchnorm/add_1", "op": "AddV2", "input": ["StatefulPartitionedCall/functional_6_1/resnet50_1/conv4_block2_2_bn_1/batchnorm/mul_1", "StatefulPartitionedCall/functional_6_1/resnet50_1/conv4_block2_2_bn_1/batchnorm/sub"], "attr": {"T": {"type": "DT_FLOAT"}}}, {"name": "StatefulPartitionedCall/functional_6_1/resnet50_1/conv4_block2_2_relu_1/Relu", "op": "Relu", "input": ["StatefulPartitionedCall/functional_6_1/resnet50_1/conv4_block2_2_bn_1/batchnorm/add_1"], "attr": {"T": {"type": "DT_FLOAT"}}}, {"name": "StatefulPartitionedCall/functional_6_1/resnet50_1/conv4_block2_3_conv_1/add", "op": "_FusedConv2D", "input": ["StatefulPartitionedCall/functional_6_1/resnet50_1/conv4_block2_2_relu_1/Relu", "StatefulPartitionedCall/functional_6_1/resnet50_1/conv4_block2_3_conv_1/convolution/ReadVariableOp", "StatefulPartitionedCall/functional_6_1/resnet50_1/conv4_block2_3_conv_1/Reshape"], "device": "/device:CPU:0", "attr": {"num_host_args": {"i": "0"}, "data_format": {"s": "TkhXQw=="}, "filter_format": {"s": "SFdJTw=="}, "fused_ops": {"list": {"s": ["Qmlhc0FkZA=="]}}, "num_args": {"i": "1"}, "strides": {"list": {"i": ["1", "1", "1", "1"]}}, "TArgs": {"list": {"type": ["DT_FLOAT"]}}, "padding": {"s": "VkFMSUQ="}, "use_cudnn_on_gpu": {"b": true}, "leakyrelu_alpha": {"f": 0.2}, "epsilon": {"f": 0.0}, "T": {"type": "DT_FLOAT"}, "explicit_paddings": {"list": {}}, "dilations": {"list": {"i": ["1", "1", "1", "1"]}}}}, {"name": "StatefulPartitionedCall/functional_6_1/resnet50_1/conv4_block2_3_bn_1/batchnorm/mul_1", "op": "Mul", "input": ["StatefulPartitionedCall/functional_6_1/resnet50_1/conv4_block2_3_conv_1/add", "StatefulPartitionedCall/functional_6_1/resnet50_1/conv4_block2_3_bn_1/batchnorm/mul"], "attr": {"T": {"type": "DT_FLOAT"}}}, {"name": "StatefulPartitionedCall/functional_6_1/resnet50_1/conv4_block2_3_bn_1/batchnorm/add_1", "op": "AddV2", "input": ["StatefulPartitionedCall/functional_6_1/resnet50_1/conv4_block2_3_bn_1/batchnorm/mul_1", "StatefulPartitionedCall/functional_6_1/resnet50_1/conv4_block2_3_bn_1/batchnorm/sub"], "attr": {"T": {"type": "DT_FLOAT"}}}, {"name": "StatefulPartitionedCall/functional_6_1/resnet50_1/conv4_block2_add_1/Add", "op": "AddV2", "input": ["StatefulPartitionedCall/functional_6_1/resnet50_1/conv4_block1_out_1/Relu", "StatefulPartitionedCall/functional_6_1/resnet50_1/conv4_block2_3_bn_1/batchnorm/add_1"], "attr": {"T": {"type": "DT_FLOAT"}}}, {"name": "StatefulPartitionedCall/functional_6_1/resnet50_1/conv4_block2_out_1/Relu", "op": "Relu", "input": ["StatefulPartitionedCall/functional_6_1/resnet50_1/conv4_block2_add_1/Add"], "attr": {"T": {"type": "DT_FLOAT"}}}, {"name": "StatefulPartitionedCall/functional_6_1/resnet50_1/conv4_block3_1_conv_1/add", "op": "_FusedConv2D", "input": ["StatefulPartitionedCall/functional_6_1/resnet50_1/conv4_block2_out_1/Relu", "StatefulPartitionedCall/functional_6_1/resnet50_1/conv4_block3_1_conv_1/convolution/ReadVariableOp", "StatefulPartitionedCall/functional_6_1/resnet50_1/conv4_block3_1_conv_1/Reshape"], "device": "/device:CPU:0", "attr": {"num_host_args": {"i": "0"}, "data_format": {"s": "TkhXQw=="}, "filter_format": {"s": "SFdJTw=="}, "strides": {"list": {"i": ["1", "1", "1", "1"]}}, "num_args": {"i": "1"}, "fused_ops": {"list": {"s": ["Qmlhc0FkZA=="]}}, "TArgs": {"list": {"type": ["DT_FLOAT"]}}, "padding": {"s": "VkFMSUQ="}, "use_cudnn_on_gpu": {"b": true}, "leakyrelu_alpha": {"f": 0.2}, "epsilon": {"f": 0.0}, "T": {"type": "DT_FLOAT"}, "explicit_paddings": {"list": {}}, "dilations": {"list": {"i": ["1", "1", "1", "1"]}}}}, {"name": "StatefulPartitionedCall/functional_6_1/resnet50_1/conv4_block3_1_bn_1/batchnorm/mul_1", "op": "Mul", "input": ["StatefulPartitionedCall/functional_6_1/resnet50_1/conv4_block3_1_conv_1/add", "StatefulPartitionedCall/functional_6_1/resnet50_1/conv4_block3_1_bn_1/batchnorm/mul"], "attr": {"T": {"type": "DT_FLOAT"}}}, {"name": "StatefulPartitionedCall/functional_6_1/resnet50_1/conv4_block3_1_bn_1/batchnorm/add_1", "op": "AddV2", "input": ["StatefulPartitionedCall/functional_6_1/resnet50_1/conv4_block3_1_bn_1/batchnorm/mul_1", "StatefulPartitionedCall/functional_6_1/resnet50_1/conv4_block3_1_bn_1/batchnorm/sub"], "attr": {"T": {"type": "DT_FLOAT"}}}, {"name": "StatefulPartitionedCall/functional_6_1/resnet50_1/conv4_block3_1_relu_1/Relu", "op": "Relu", "input": ["StatefulPartitionedCall/functional_6_1/resnet50_1/conv4_block3_1_bn_1/batchnorm/add_1"], "attr": {"T": {"type": "DT_FLOAT"}}}, {"name": "StatefulPartitionedCall/functional_6_1/resnet50_1/conv4_block3_2_conv_1/add", "op": "_FusedConv2D", "input": ["StatefulPartitionedCall/functional_6_1/resnet50_1/conv4_block3_1_relu_1/Relu", "StatefulPartitionedCall/functional_6_1/resnet50_1/conv4_block3_2_conv_1/convolution/ReadVariableOp", "StatefulPartitionedCall/functional_6_1/resnet50_1/conv4_block3_2_conv_1/Reshape"], "device": "/device:CPU:0", "attr": {"num_host_args": {"i": "0"}, "data_format": {"s": "TkhXQw=="}, "filter_format": {"s": "SFdJTw=="}, "strides": {"list": {"i": ["1", "1", "1", "1"]}}, "num_args": {"i": "1"}, "fused_ops": {"list": {"s": ["Qmlhc0FkZA=="]}}, "TArgs": {"list": {"type": ["DT_FLOAT"]}}, "padding": {"s": "U0FNRQ=="}, "use_cudnn_on_gpu": {"b": true}, "leakyrelu_alpha": {"f": 0.2}, "epsilon": {"f": 0.0}, "T": {"type": "DT_FLOAT"}, "explicit_paddings": {"list": {}}, "dilations": {"list": {"i": ["1", "1", "1", "1"]}}}}, {"name": "StatefulPartitionedCall/functional_6_1/resnet50_1/conv4_block3_2_bn_1/batchnorm/mul_1", "op": "Mul", "input": ["StatefulPartitionedCall/functional_6_1/resnet50_1/conv4_block3_2_conv_1/add", "StatefulPartitionedCall/functional_6_1/resnet50_1/conv4_block3_2_bn_1/batchnorm/mul"], "attr": {"T": {"type": "DT_FLOAT"}}}, {"name": "StatefulPartitionedCall/functional_6_1/resnet50_1/conv4_block3_2_bn_1/batchnorm/add_1", "op": "AddV2", "input": ["StatefulPartitionedCall/functional_6_1/resnet50_1/conv4_block3_2_bn_1/batchnorm/mul_1", "StatefulPartitionedCall/functional_6_1/resnet50_1/conv4_block3_2_bn_1/batchnorm/sub"], "attr": {"T": {"type": "DT_FLOAT"}}}, {"name": "StatefulPartitionedCall/functional_6_1/resnet50_1/conv4_block3_2_relu_1/Relu", "op": "Relu", "input": ["StatefulPartitionedCall/functional_6_1/resnet50_1/conv4_block3_2_bn_1/batchnorm/add_1"], "attr": {"T": {"type": "DT_FLOAT"}}}, {"name": "StatefulPartitionedCall/functional_6_1/resnet50_1/conv4_block3_3_conv_1/add", "op": "_FusedConv2D", "input": ["StatefulPartitionedCall/functional_6_1/resnet50_1/conv4_block3_2_relu_1/Relu", "StatefulPartitionedCall/functional_6_1/resnet50_1/conv4_block3_3_conv_1/convolution/ReadVariableOp", "StatefulPartitionedCall/functional_6_1/resnet50_1/conv4_block3_3_conv_1/Reshape"], "device": "/device:CPU:0", "attr": {"num_host_args": {"i": "0"}, "data_format": {"s": "TkhXQw=="}, "filter_format": {"s": "SFdJTw=="}, "strides": {"list": {"i": ["1", "1", "1", "1"]}}, "num_args": {"i": "1"}, "fused_ops": {"list": {"s": ["Qmlhc0FkZA=="]}}, "TArgs": {"list": {"type": ["DT_FLOAT"]}}, "padding": {"s": "VkFMSUQ="}, "use_cudnn_on_gpu": {"b": true}, "leakyrelu_alpha": {"f": 0.2}, "epsilon": {"f": 0.0}, "T": {"type": "DT_FLOAT"}, "explicit_paddings": {"list": {}}, "dilations": {"list": {"i": ["1", "1", "1", "1"]}}}}, {"name": "StatefulPartitionedCall/functional_6_1/resnet50_1/conv4_block3_3_bn_1/batchnorm/mul_1", "op": "Mul", "input": ["StatefulPartitionedCall/functional_6_1/resnet50_1/conv4_block3_3_conv_1/add", "StatefulPartitionedCall/functional_6_1/resnet50_1/conv4_block3_3_bn_1/batchnorm/mul"], "attr": {"T": {"type": "DT_FLOAT"}}}, {"name": "StatefulPartitionedCall/functional_6_1/resnet50_1/conv4_block3_3_bn_1/batchnorm/add_1", "op": "AddV2", "input": ["StatefulPartitionedCall/functional_6_1/resnet50_1/conv4_block3_3_bn_1/batchnorm/mul_1", "StatefulPartitionedCall/functional_6_1/resnet50_1/conv4_block3_3_bn_1/batchnorm/sub"], "attr": {"T": {"type": "DT_FLOAT"}}}, {"name": "StatefulPartitionedCall/functional_6_1/resnet50_1/conv4_block3_add_1/Add", "op": "AddV2", "input": ["StatefulPartitionedCall/functional_6_1/resnet50_1/conv4_block2_out_1/Relu", "StatefulPartitionedCall/functional_6_1/resnet50_1/conv4_block3_3_bn_1/batchnorm/add_1"], "attr": {"T": {"type": "DT_FLOAT"}}}, {"name": "StatefulPartitionedCall/functional_6_1/resnet50_1/conv4_block3_out_1/Relu", "op": "Relu", "input": ["StatefulPartitionedCall/functional_6_1/resnet50_1/conv4_block3_add_1/Add"], "attr": {"T": {"type": "DT_FLOAT"}}}, {"name": "StatefulPartitionedCall/functional_6_1/resnet50_1/conv4_block4_1_conv_1/add", "op": "_FusedConv2D", "input": ["StatefulPartitionedCall/functional_6_1/resnet50_1/conv4_block3_out_1/Relu", "StatefulPartitionedCall/functional_6_1/resnet50_1/conv4_block4_1_conv_1/convolution/ReadVariableOp", "StatefulPartitionedCall/functional_6_1/resnet50_1/conv4_block4_1_conv_1/Reshape"], "device": "/device:CPU:0", "attr": {"num_host_args": {"i": "0"}, "data_format": {"s": "TkhXQw=="}, "filter_format": {"s": "SFdJTw=="}, "strides": {"list": {"i": ["1", "1", "1", "1"]}}, "num_args": {"i": "1"}, "fused_ops": {"list": {"s": ["Qmlhc0FkZA=="]}}, "TArgs": {"list": {"type": ["DT_FLOAT"]}}, "padding": {"s": "VkFMSUQ="}, "use_cudnn_on_gpu": {"b": true}, "leakyrelu_alpha": {"f": 0.2}, "epsilon": {"f": 0.0}, "T": {"type": "DT_FLOAT"}, "explicit_paddings": {"list": {}}, "dilations": {"list": {"i": ["1", "1", "1", "1"]}}}}, {"name": "StatefulPartitionedCall/functional_6_1/resnet50_1/conv4_block4_1_bn_1/batchnorm/mul_1", "op": "Mul", "input": ["StatefulPartitionedCall/functional_6_1/resnet50_1/conv4_block4_1_conv_1/add", "StatefulPartitionedCall/functional_6_1/resnet50_1/conv4_block4_1_bn_1/batchnorm/mul"], "attr": {"T": {"type": "DT_FLOAT"}}}, {"name": "StatefulPartitionedCall/functional_6_1/resnet50_1/conv4_block4_1_bn_1/batchnorm/add_1", "op": "AddV2", "input": ["StatefulPartitionedCall/functional_6_1/resnet50_1/conv4_block4_1_bn_1/batchnorm/mul_1", "StatefulPartitionedCall/functional_6_1/resnet50_1/conv4_block4_1_bn_1/batchnorm/sub"], "attr": {"T": {"type": "DT_FLOAT"}}}, {"name": "StatefulPartitionedCall/functional_6_1/resnet50_1/conv4_block4_1_relu_1/Relu", "op": "Relu", "input": ["StatefulPartitionedCall/functional_6_1/resnet50_1/conv4_block4_1_bn_1/batchnorm/add_1"], "attr": {"T": {"type": "DT_FLOAT"}}}, {"name": "StatefulPartitionedCall/functional_6_1/resnet50_1/conv4_block4_2_conv_1/add", "op": "_FusedConv2D", "input": ["StatefulPartitionedCall/functional_6_1/resnet50_1/conv4_block4_1_relu_1/Relu", "StatefulPartitionedCall/functional_6_1/resnet50_1/conv4_block4_2_conv_1/convolution/ReadVariableOp", "StatefulPartitionedCall/functional_6_1/resnet50_1/conv4_block4_2_conv_1/Reshape"], "device": "/device:CPU:0", "attr": {"num_host_args": {"i": "0"}, "data_format": {"s": "TkhXQw=="}, "filter_format": {"s": "SFdJTw=="}, "fused_ops": {"list": {"s": ["Qmlhc0FkZA=="]}}, "num_args": {"i": "1"}, "strides": {"list": {"i": ["1", "1", "1", "1"]}}, "TArgs": {"list": {"type": ["DT_FLOAT"]}}, "padding": {"s": "U0FNRQ=="}, "use_cudnn_on_gpu": {"b": true}, "leakyrelu_alpha": {"f": 0.2}, "epsilon": {"f": 0.0}, "T": {"type": "DT_FLOAT"}, "explicit_paddings": {"list": {}}, "dilations": {"list": {"i": ["1", "1", "1", "1"]}}}}, {"name": "StatefulPartitionedCall/functional_6_1/resnet50_1/conv4_block4_2_bn_1/batchnorm/mul_1", "op": "Mul", "input": ["StatefulPartitionedCall/functional_6_1/resnet50_1/conv4_block4_2_conv_1/add", "StatefulPartitionedCall/functional_6_1/resnet50_1/conv4_block4_2_bn_1/batchnorm/mul"], "attr": {"T": {"type": "DT_FLOAT"}}}, {"name": "StatefulPartitionedCall/functional_6_1/resnet50_1/conv4_block4_2_bn_1/batchnorm/add_1", "op": "AddV2", "input": ["StatefulPartitionedCall/functional_6_1/resnet50_1/conv4_block4_2_bn_1/batchnorm/mul_1", "StatefulPartitionedCall/functional_6_1/resnet50_1/conv4_block4_2_bn_1/batchnorm/sub"], "attr": {"T": {"type": "DT_FLOAT"}}}, {"name": "StatefulPartitionedCall/functional_6_1/resnet50_1/conv4_block4_2_relu_1/Relu", "op": "Relu", "input": ["StatefulPartitionedCall/functional_6_1/resnet50_1/conv4_block4_2_bn_1/batchnorm/add_1"], "attr": {"T": {"type": "DT_FLOAT"}}}, {"name": "StatefulPartitionedCall/functional_6_1/resnet50_1/conv4_block4_3_conv_1/add", "op": "_FusedConv2D", "input": ["StatefulPartitionedCall/functional_6_1/resnet50_1/conv4_block4_2_relu_1/Relu", "StatefulPartitionedCall/functional_6_1/resnet50_1/conv4_block4_3_conv_1/convolution/ReadVariableOp", "StatefulPartitionedCall/functional_6_1/resnet50_1/conv4_block4_3_conv_1/Reshape"], "device": "/device:CPU:0", "attr": {"num_host_args": {"i": "0"}, "data_format": {"s": "TkhXQw=="}, "filter_format": {"s": "SFdJTw=="}, "fused_ops": {"list": {"s": ["Qmlhc0FkZA=="]}}, "num_args": {"i": "1"}, "strides": {"list": {"i": ["1", "1", "1", "1"]}}, "TArgs": {"list": {"type": ["DT_FLOAT"]}}, "padding": {"s": "VkFMSUQ="}, "use_cudnn_on_gpu": {"b": true}, "leakyrelu_alpha": {"f": 0.2}, "epsilon": {"f": 0.0}, "T": {"type": "DT_FLOAT"}, "explicit_paddings": {"list": {}}, "dilations": {"list": {"i": ["1", "1", "1", "1"]}}}}, {"name": "StatefulPartitionedCall/functional_6_1/resnet50_1/conv4_block4_3_bn_1/batchnorm/mul_1", "op": "Mul", "input": ["StatefulPartitionedCall/functional_6_1/resnet50_1/conv4_block4_3_conv_1/add", "StatefulPartitionedCall/functional_6_1/resnet50_1/conv4_block4_3_bn_1/batchnorm/mul"], "attr": {"T": {"type": "DT_FLOAT"}}}, {"name": "StatefulPartitionedCall/functional_6_1/resnet50_1/conv4_block4_3_bn_1/batchnorm/add_1", "op": "AddV2", "input": ["StatefulPartitionedCall/functional_6_1/resnet50_1/conv4_block4_3_bn_1/batchnorm/mul_1", "StatefulPartitionedCall/functional_6_1/resnet50_1/conv4_block4_3_bn_1/batchnorm/sub"], "attr": {"T": {"type": "DT_FLOAT"}}}, {"name": "StatefulPartitionedCall/functional_6_1/resnet50_1/conv4_block4_add_1/Add", "op": "AddV2", "input": ["StatefulPartitionedCall/functional_6_1/resnet50_1/conv4_block3_out_1/Relu", "StatefulPartitionedCall/functional_6_1/resnet50_1/conv4_block4_3_bn_1/batchnorm/add_1"], "attr": {"T": {"type": "DT_FLOAT"}}}, {"name": "StatefulPartitionedCall/functional_6_1/resnet50_1/conv4_block4_out_1/Relu", "op": "Relu", "input": ["StatefulPartitionedCall/functional_6_1/resnet50_1/conv4_block4_add_1/Add"], "attr": {"T": {"type": "DT_FLOAT"}}}, {"name": "StatefulPartitionedCall/functional_6_1/resnet50_1/conv4_block5_1_conv_1/add", "op": "_FusedConv2D", "input": ["StatefulPartitionedCall/functional_6_1/resnet50_1/conv4_block4_out_1/Relu", "StatefulPartitionedCall/functional_6_1/resnet50_1/conv4_block5_1_conv_1/convolution/ReadVariableOp", "StatefulPartitionedCall/functional_6_1/resnet50_1/conv4_block5_1_conv_1/Reshape"], "device": "/device:CPU:0", "attr": {"num_host_args": {"i": "0"}, "data_format": {"s": "TkhXQw=="}, "filter_format": {"s": "SFdJTw=="}, "fused_ops": {"list": {"s": ["Qmlhc0FkZA=="]}}, "num_args": {"i": "1"}, "strides": {"list": {"i": ["1", "1", "1", "1"]}}, "TArgs": {"list": {"type": ["DT_FLOAT"]}}, "padding": {"s": "VkFMSUQ="}, "use_cudnn_on_gpu": {"b": true}, "leakyrelu_alpha": {"f": 0.2}, "epsilon": {"f": 0.0}, "T": {"type": "DT_FLOAT"}, "explicit_paddings": {"list": {}}, "dilations": {"list": {"i": ["1", "1", "1", "1"]}}}}, {"name": "StatefulPartitionedCall/functional_6_1/resnet50_1/conv4_block5_1_bn_1/batchnorm/mul_1", "op": "Mul", "input": ["StatefulPartitionedCall/functional_6_1/resnet50_1/conv4_block5_1_conv_1/add", "StatefulPartitionedCall/functional_6_1/resnet50_1/conv4_block5_1_bn_1/batchnorm/mul"], "attr": {"T": {"type": "DT_FLOAT"}}}, {"name": "StatefulPartitionedCall/functional_6_1/resnet50_1/conv4_block5_1_bn_1/batchnorm/add_1", "op": "AddV2", "input": ["StatefulPartitionedCall/functional_6_1/resnet50_1/conv4_block5_1_bn_1/batchnorm/mul_1", "StatefulPartitionedCall/functional_6_1/resnet50_1/conv4_block5_1_bn_1/batchnorm/sub"], "attr": {"T": {"type": "DT_FLOAT"}}}, {"name": "StatefulPartitionedCall/functional_6_1/resnet50_1/conv4_block5_1_relu_1/Relu", "op": "Relu", "input": ["StatefulPartitionedCall/functional_6_1/resnet50_1/conv4_block5_1_bn_1/batchnorm/add_1"], "attr": {"T": {"type": "DT_FLOAT"}}}, {"name": "StatefulPartitionedCall/functional_6_1/resnet50_1/conv4_block5_2_conv_1/add", "op": "_FusedConv2D", "input": ["StatefulPartitionedCall/functional_6_1/resnet50_1/conv4_block5_1_relu_1/Relu", "StatefulPartitionedCall/functional_6_1/resnet50_1/conv4_block5_2_conv_1/convolution/ReadVariableOp", "StatefulPartitionedCall/functional_6_1/resnet50_1/conv4_block5_2_conv_1/Reshape"], "device": "/device:CPU:0", "attr": {"num_host_args": {"i": "0"}, "data_format": {"s": "TkhXQw=="}, "filter_format": {"s": "SFdJTw=="}, "fused_ops": {"list": {"s": ["Qmlhc0FkZA=="]}}, "num_args": {"i": "1"}, "strides": {"list": {"i": ["1", "1", "1", "1"]}}, "TArgs": {"list": {"type": ["DT_FLOAT"]}}, "padding": {"s": "U0FNRQ=="}, "use_cudnn_on_gpu": {"b": true}, "leakyrelu_alpha": {"f": 0.2}, "epsilon": {"f": 0.0}, "T": {"type": "DT_FLOAT"}, "explicit_paddings": {"list": {}}, "dilations": {"list": {"i": ["1", "1", "1", "1"]}}}}, {"name": "StatefulPartitionedCall/functional_6_1/resnet50_1/conv4_block5_2_bn_1/batchnorm/mul_1", "op": "Mul", "input": ["StatefulPartitionedCall/functional_6_1/resnet50_1/conv4_block5_2_conv_1/add", "StatefulPartitionedCall/functional_6_1/resnet50_1/conv4_block5_2_bn_1/batchnorm/mul"], "attr": {"T": {"type": "DT_FLOAT"}}}, {"name": "StatefulPartitionedCall/functional_6_1/resnet50_1/conv4_block5_2_bn_1/batchnorm/add_1", "op": "AddV2", "input": ["StatefulPartitionedCall/functional_6_1/resnet50_1/conv4_block5_2_bn_1/batchnorm/mul_1", "StatefulPartitionedCall/functional_6_1/resnet50_1/conv4_block5_2_bn_1/batchnorm/sub"], "attr": {"T": {"type": "DT_FLOAT"}}}, {"name": "StatefulPartitionedCall/functional_6_1/resnet50_1/conv4_block5_2_relu_1/Relu", "op": "Relu", "input": ["StatefulPartitionedCall/functional_6_1/resnet50_1/conv4_block5_2_bn_1/batchnorm/add_1"], "attr": {"T": {"type": "DT_FLOAT"}}}, {"name": "StatefulPartitionedCall/functional_6_1/resnet50_1/conv4_block5_3_conv_1/add", "op": "_FusedConv2D", "input": ["StatefulPartitionedCall/functional_6_1/resnet50_1/conv4_block5_2_relu_1/Relu", "StatefulPartitionedCall/functional_6_1/resnet50_1/conv4_block5_3_conv_1/convolution/ReadVariableOp", "StatefulPartitionedCall/functional_6_1/resnet50_1/conv4_block5_3_conv_1/Reshape"], "device": "/device:CPU:0", "attr": {"num_host_args": {"i": "0"}, "data_format": {"s": "TkhXQw=="}, "filter_format": {"s": "SFdJTw=="}, "fused_ops": {"list": {"s": ["Qmlhc0FkZA=="]}}, "num_args": {"i": "1"}, "strides": {"list": {"i": ["1", "1", "1", "1"]}}, "TArgs": {"list": {"type": ["DT_FLOAT"]}}, "padding": {"s": "VkFMSUQ="}, "use_cudnn_on_gpu": {"b": true}, "leakyrelu_alpha": {"f": 0.2}, "epsilon": {"f": 0.0}, "T": {"type": "DT_FLOAT"}, "explicit_paddings": {"list": {}}, "dilations": {"list": {"i": ["1", "1", "1", "1"]}}}}, {"name": "StatefulPartitionedCall/functional_6_1/resnet50_1/conv4_block5_3_bn_1/batchnorm/mul_1", "op": "Mul", "input": ["StatefulPartitionedCall/functional_6_1/resnet50_1/conv4_block5_3_conv_1/add", "StatefulPartitionedCall/functional_6_1/resnet50_1/conv4_block5_3_bn_1/batchnorm/mul"], "attr": {"T": {"type": "DT_FLOAT"}}}, {"name": "StatefulPartitionedCall/functional_6_1/resnet50_1/conv4_block5_3_bn_1/batchnorm/add_1", "op": "AddV2", "input": ["StatefulPartitionedCall/functional_6_1/resnet50_1/conv4_block5_3_bn_1/batchnorm/mul_1", "StatefulPartitionedCall/functional_6_1/resnet50_1/conv4_block5_3_bn_1/batchnorm/sub"], "attr": {"T": {"type": "DT_FLOAT"}}}, {"name": "StatefulPartitionedCall/functional_6_1/resnet50_1/conv4_block5_add_1/Add", "op": "AddV2", "input": ["StatefulPartitionedCall/functional_6_1/resnet50_1/conv4_block4_out_1/Relu", "StatefulPartitionedCall/functional_6_1/resnet50_1/conv4_block5_3_bn_1/batchnorm/add_1"], "attr": {"T": {"type": "DT_FLOAT"}}}, {"name": "StatefulPartitionedCall/functional_6_1/resnet50_1/conv4_block5_out_1/Relu", "op": "Relu", "input": ["StatefulPartitionedCall/functional_6_1/resnet50_1/conv4_block5_add_1/Add"], "attr": {"T": {"type": "DT_FLOAT"}}}, {"name": "StatefulPartitionedCall/functional_6_1/resnet50_1/conv4_block6_1_conv_1/add", "op": "_FusedConv2D", "input": ["StatefulPartitionedCall/functional_6_1/resnet50_1/conv4_block5_out_1/Relu", "StatefulPartitionedCall/functional_6_1/resnet50_1/conv4_block6_1_conv_1/convolution/ReadVariableOp", "StatefulPartitionedCall/functional_6_1/resnet50_1/conv4_block6_1_conv_1/Reshape"], "device": "/device:CPU:0", "attr": {"num_host_args": {"i": "0"}, "data_format": {"s": "TkhXQw=="}, "filter_format": {"s": "SFdJTw=="}, "strides": {"list": {"i": ["1", "1", "1", "1"]}}, "num_args": {"i": "1"}, "fused_ops": {"list": {"s": ["Qmlhc0FkZA=="]}}, "TArgs": {"list": {"type": ["DT_FLOAT"]}}, "padding": {"s": "VkFMSUQ="}, "use_cudnn_on_gpu": {"b": true}, "leakyrelu_alpha": {"f": 0.2}, "epsilon": {"f": 0.0}, "T": {"type": "DT_FLOAT"}, "explicit_paddings": {"list": {}}, "dilations": {"list": {"i": ["1", "1", "1", "1"]}}}}, {"name": "StatefulPartitionedCall/functional_6_1/resnet50_1/conv4_block6_1_bn_1/batchnorm/mul_1", "op": "Mul", "input": ["StatefulPartitionedCall/functional_6_1/resnet50_1/conv4_block6_1_conv_1/add", "StatefulPartitionedCall/functional_6_1/resnet50_1/conv4_block6_1_bn_1/batchnorm/mul"], "attr": {"T": {"type": "DT_FLOAT"}}}, {"name": "StatefulPartitionedCall/functional_6_1/resnet50_1/conv4_block6_1_bn_1/batchnorm/add_1", "op": "AddV2", "input": ["StatefulPartitionedCall/functional_6_1/resnet50_1/conv4_block6_1_bn_1/batchnorm/mul_1", "StatefulPartitionedCall/functional_6_1/resnet50_1/conv4_block6_1_bn_1/batchnorm/sub"], "attr": {"T": {"type": "DT_FLOAT"}}}, {"name": "StatefulPartitionedCall/functional_6_1/resnet50_1/conv4_block6_1_relu_1/Relu", "op": "Relu", "input": ["StatefulPartitionedCall/functional_6_1/resnet50_1/conv4_block6_1_bn_1/batchnorm/add_1"], "attr": {"T": {"type": "DT_FLOAT"}}}, {"name": "StatefulPartitionedCall/functional_6_1/resnet50_1/conv4_block6_2_conv_1/add", "op": "_FusedConv2D", "input": ["StatefulPartitionedCall/functional_6_1/resnet50_1/conv4_block6_1_relu_1/Relu", "StatefulPartitionedCall/functional_6_1/resnet50_1/conv4_block6_2_conv_1/convolution/ReadVariableOp", "StatefulPartitionedCall/functional_6_1/resnet50_1/conv4_block6_2_conv_1/Reshape"], "device": "/device:CPU:0", "attr": {"num_host_args": {"i": "0"}, "data_format": {"s": "TkhXQw=="}, "filter_format": {"s": "SFdJTw=="}, "strides": {"list": {"i": ["1", "1", "1", "1"]}}, "num_args": {"i": "1"}, "fused_ops": {"list": {"s": ["Qmlhc0FkZA=="]}}, "TArgs": {"list": {"type": ["DT_FLOAT"]}}, "padding": {"s": "U0FNRQ=="}, "use_cudnn_on_gpu": {"b": true}, "leakyrelu_alpha": {"f": 0.2}, "epsilon": {"f": 0.0}, "T": {"type": "DT_FLOAT"}, "explicit_paddings": {"list": {}}, "dilations": {"list": {"i": ["1", "1", "1", "1"]}}}}, {"name": "StatefulPartitionedCall/functional_6_1/resnet50_1/conv4_block6_2_bn_1/batchnorm/mul_1", "op": "Mul", "input": ["StatefulPartitionedCall/functional_6_1/resnet50_1/conv4_block6_2_conv_1/add", "StatefulPartitionedCall/functional_6_1/resnet50_1/conv4_block6_2_bn_1/batchnorm/mul"], "attr": {"T": {"type": "DT_FLOAT"}}}, {"name": "StatefulPartitionedCall/functional_6_1/resnet50_1/conv4_block6_2_bn_1/batchnorm/add_1", "op": "AddV2", "input": ["StatefulPartitionedCall/functional_6_1/resnet50_1/conv4_block6_2_bn_1/batchnorm/mul_1", "StatefulPartitionedCall/functional_6_1/resnet50_1/conv4_block6_2_bn_1/batchnorm/sub"], "attr": {"T": {"type": "DT_FLOAT"}}}, {"name": "StatefulPartitionedCall/functional_6_1/resnet50_1/conv4_block6_2_relu_1/Relu", "op": "Relu", "input": ["StatefulPartitionedCall/functional_6_1/resnet50_1/conv4_block6_2_bn_1/batchnorm/add_1"], "attr": {"T": {"type": "DT_FLOAT"}}}, {"name": "StatefulPartitionedCall/functional_6_1/resnet50_1/conv4_block6_3_conv_1/add", "op": "_FusedConv2D", "input": ["StatefulPartitionedCall/functional_6_1/resnet50_1/conv4_block6_2_relu_1/Relu", "StatefulPartitionedCall/functional_6_1/resnet50_1/conv4_block6_3_conv_1/convolution/ReadVariableOp", "StatefulPartitionedCall/functional_6_1/resnet50_1/conv4_block6_3_conv_1/Reshape"], "device": "/device:CPU:0", "attr": {"num_host_args": {"i": "0"}, "data_format": {"s": "TkhXQw=="}, "filter_format": {"s": "SFdJTw=="}, "fused_ops": {"list": {"s": ["Qmlhc0FkZA=="]}}, "num_args": {"i": "1"}, "strides": {"list": {"i": ["1", "1", "1", "1"]}}, "TArgs": {"list": {"type": ["DT_FLOAT"]}}, "padding": {"s": "VkFMSUQ="}, "use_cudnn_on_gpu": {"b": true}, "leakyrelu_alpha": {"f": 0.2}, "epsilon": {"f": 0.0}, "T": {"type": "DT_FLOAT"}, "explicit_paddings": {"list": {}}, "dilations": {"list": {"i": ["1", "1", "1", "1"]}}}}, {"name": "StatefulPartitionedCall/functional_6_1/resnet50_1/conv4_block6_3_bn_1/batchnorm/mul_1", "op": "Mul", "input": ["StatefulPartitionedCall/functional_6_1/resnet50_1/conv4_block6_3_conv_1/add", "StatefulPartitionedCall/functional_6_1/resnet50_1/conv4_block6_3_bn_1/batchnorm/mul"], "attr": {"T": {"type": "DT_FLOAT"}}}, {"name": "StatefulPartitionedCall/functional_6_1/resnet50_1/conv4_block6_3_bn_1/batchnorm/add_1", "op": "AddV2", "input": ["StatefulPartitionedCall/functional_6_1/resnet50_1/conv4_block6_3_bn_1/batchnorm/mul_1", "StatefulPartitionedCall/functional_6_1/resnet50_1/conv4_block6_3_bn_1/batchnorm/sub"], "attr": {"T": {"type": "DT_FLOAT"}}}, {"name": "StatefulPartitionedCall/functional_6_1/resnet50_1/conv4_block6_add_1/Add", "op": "AddV2", "input": ["StatefulPartitionedCall/functional_6_1/resnet50_1/conv4_block5_out_1/Relu", "StatefulPartitionedCall/functional_6_1/resnet50_1/conv4_block6_3_bn_1/batchnorm/add_1"], "attr": {"T": {"type": "DT_FLOAT"}}}, {"name": "StatefulPartitionedCall/functional_6_1/resnet50_1/conv4_block6_out_1/Relu", "op": "Relu", "input": ["StatefulPartitionedCall/functional_6_1/resnet50_1/conv4_block6_add_1/Add"], "attr": {"T": {"type": "DT_FLOAT"}}}, {"name": "StatefulPartitionedCall/functional_6_1/resnet50_1/conv5_block1_1_conv_1/add", "op": "_FusedConv2D", "input": ["StatefulPartitionedCall/functional_6_1/resnet50_1/conv4_block6_out_1/Relu", "StatefulPartitionedCall/functional_6_1/resnet50_1/conv5_block1_1_conv_1/convolution/ReadVariableOp", "StatefulPartitionedCall/functional_6_1/resnet50_1/conv5_block1_1_conv_1/Reshape"], "device": "/device:CPU:0", "attr": {"num_host_args": {"i": "0"}, "data_format": {"s": "TkhXQw=="}, "filter_format": {"s": "SFdJTw=="}, "fused_ops": {"list": {"s": ["Qmlhc0FkZA=="]}}, "num_args": {"i": "1"}, "strides": {"list": {"i": ["1", "2", "2", "1"]}}, "TArgs": {"list": {"type": ["DT_FLOAT"]}}, "padding": {"s": "VkFMSUQ="}, "use_cudnn_on_gpu": {"b": true}, "leakyrelu_alpha": {"f": 0.2}, "epsilon": {"f": 0.0}, "T": {"type": "DT_FLOAT"}, "explicit_paddings": {"list": {}}, "dilations": {"list": {"i": ["1", "1", "1", "1"]}}}}, {"name": "StatefulPartitionedCall/functional_6_1/resnet50_1/conv5_block1_0_conv_1/add", "op": "_FusedConv2D", "input": ["StatefulPartitionedCall/functional_6_1/resnet50_1/conv4_block6_out_1/Relu", "StatefulPartitionedCall/functional_6_1/resnet50_1/conv5_block1_0_conv_1/convolution/ReadVariableOp", "StatefulPartitionedCall/functional_6_1/resnet50_1/conv5_block1_0_conv_1/Reshape"], "device": "/device:CPU:0", "attr": {"num_host_args": {"i": "0"}, "data_format": {"s": "TkhXQw=="}, "filter_format": {"s": "SFdJTw=="}, "fused_ops": {"list": {"s": ["Qmlhc0FkZA=="]}}, "num_args": {"i": "1"}, "strides": {"list": {"i": ["1", "2", "2", "1"]}}, "TArgs": {"list": {"type": ["DT_FLOAT"]}}, "padding": {"s": "VkFMSUQ="}, "use_cudnn_on_gpu": {"b": true}, "leakyrelu_alpha": {"f": 0.2}, "epsilon": {"f": 0.0}, "T": {"type": "DT_FLOAT"}, "explicit_paddings": {"list": {}}, "dilations": {"list": {"i": ["1", "1", "1", "1"]}}}}, {"name": "StatefulPartitionedCall/functional_6_1/resnet50_1/conv5_block1_1_bn_1/batchnorm/mul_1", "op": "Mul", "input": ["StatefulPartitionedCall/functional_6_1/resnet50_1/conv5_block1_1_conv_1/add", "StatefulPartitionedCall/functional_6_1/resnet50_1/conv5_block1_1_bn_1/batchnorm/mul"], "attr": {"T": {"type": "DT_FLOAT"}}}, {"name": "StatefulPartitionedCall/functional_6_1/resnet50_1/conv5_block1_0_bn_1/batchnorm/mul_1", "op": "Mul", "input": ["StatefulPartitionedCall/functional_6_1/resnet50_1/conv5_block1_0_conv_1/add", "StatefulPartitionedCall/functional_6_1/resnet50_1/conv5_block1_0_bn_1/batchnorm/mul"], "attr": {"T": {"type": "DT_FLOAT"}}}, {"name": "StatefulPartitionedCall/functional_6_1/resnet50_1/conv5_block1_1_bn_1/batchnorm/add_1", "op": "AddV2", "input": ["StatefulPartitionedCall/functional_6_1/resnet50_1/conv5_block1_1_bn_1/batchnorm/mul_1", "StatefulPartitionedCall/functional_6_1/resnet50_1/conv5_block1_1_bn_1/batchnorm/sub"], "attr": {"T": {"type": "DT_FLOAT"}}}, {"name": "StatefulPartitionedCall/functional_6_1/resnet50_1/conv5_block1_0_bn_1/batchnorm/add_1", "op": "AddV2", "input": ["StatefulPartitionedCall/functional_6_1/resnet50_1/conv5_block1_0_bn_1/batchnorm/mul_1", "StatefulPartitionedCall/functional_6_1/resnet50_1/conv5_block1_0_bn_1/batchnorm/sub"], "attr": {"T": {"type": "DT_FLOAT"}}}, {"name": "StatefulPartitionedCall/functional_6_1/resnet50_1/conv5_block1_1_relu_1/Relu", "op": "Relu", "input": ["StatefulPartitionedCall/fun…
shape": [1, 1, 1, 256], "dtype": "float32", "quantization": {"dtype": "uint8", "min": -1.2340502476102783e-08, "scale": 9.872401980882227e-11, "original_dtype": "float32"}}, {"name": "StatefulPartitionedCall/functional_6_1/resnet50_1/conv2_block1_3_bn_1/batchnorm/mul", "shape": [1, 1, 1, 256], "dtype": "float32", "quantization": {"dtype": "uint8", "min": 0.24663704633712769, "scale": 0.4967745848730499, "original_dtype": "float32"}}, {"name": "StatefulPartitionedCall/functional_6_1/resnet50_1/conv2_block1_3_bn_1/batchnorm/sub", "shape": [1, 1, 1, 256], "dtype": "float32", "quantization": {"dtype": "uint8", "min": -8.129110074510761, "scale": 0.06718272788851869, "original_dtype": "float32"}}, {"name": "StatefulPartitionedCall/functional_6_1/resnet50_1/conv2_block2_1_conv_1/convolution/ReadVariableOp", "shape": [1, 1, 256, 64], "dtype": "float32", "quantization": {"dtype": "uint8", "min": -0.29485263543970447, "scale": 0.0020195385989020855, "original_dtype": "float32"}}, {"name": "StatefulPartitionedCall/functional_6_1/resnet50_1/conv2_block2_1_conv_1/Reshape", "shape": [1, 1, 1, 64], "dtype": "float32", "quantization": {"dtype": "uint8", "min": -7.017657043708341e-09, "scale": 4.6784380291388944e-11, "original_dtype": "float32"}}, {"name": "StatefulPartitionedCall/functional_6_1/resnet50_1/conv2_block2_1_bn_1/batchnorm/mul", "shape": [1, 1, 1, 64], "dtype": "float32", "quantization": {"dtype": "uint8", "min": 0.68451988697052, "scale": 0.007280606382033404, "original_dtype": "float32"}}, {"name": "StatefulPartitionedCall/functional_6_1/resnet50_1/conv2_block2_1_bn_1/batchnorm/sub", "shape": [1, 1, 1, 64], "dtype": "float32", "quantization": {"dtype": "uint8", "min": -2.8069941053203507, "scale": 0.023788085638308056, "original_dtype": "float32"}}, {"name": "StatefulPartitionedCall/functional_6_1/resnet50_1/conv2_block2_2_conv_1/convolution/ReadVariableOp", "shape": [3, 3, 64, 64], "dtype": "float32", "quantization": {"dtype": "uint8", "min": -0.24308260398752551, "scale": 0.00220984185443205, "original_dtype": "float32"}}, {"name": "StatefulPartitionedCall/functional_6_1/resnet50_1/conv2_block2_2_conv_1/Reshape", "shape": [1, 1, 1, 64], "dtype": "float32", "quantization": {"dtype": "uint8", "min": -7.564363890821823e-09, "scale": 6.356608311614978e-11, "original_dtype": "float32"}}, {"name": "StatefulPartitionedCall/functional_6_1/resnet50_1/conv2_block2_2_bn_1/batchnorm/mul", "shape": [1, 1, 1, 64], "dtype": "float32", "quantization": {"dtype": "uint8", "min": 0.5913221836090088, "scale": 0.0098327028985117, "original_dtype": "float32"}}, {"name": "StatefulPartitionedCall/functional_6_1/resnet50_1/conv2_block2_2_bn_1/batchnorm/sub", "shape": [1, 1, 1, 64], "dtype": "float32", "quantization": {"dtype": "uint8", "min": -2.7031992463504566, "scale": 0.019588400335872874, "original_dtype": "float32"}}, {"name": "StatefulPartitionedCall/functional_6_1/resnet50_1/conv2_block2_3_conv_1/convolution/ReadVariableOp", "shape": [1, 1, 64, 256], "dtype": "float32", "quantization": {"dtype": "uint8", "min": -0.233500790829752, "scale": 0.002012937851980621, "original_dtype": "float32"}}, {"name": "StatefulPartitionedCall/functional_6_1/resnet50_1/conv2_block2_3_conv_1/Reshape", "shape": [1, 1, 1, 256], "dtype": "float32", "quantization": {"dtype": "uint8", "min": -7.022143081393458e-09, "scale": 4.980243320137204e-11, "original_dtype": "float32"}}, {"name": "StatefulPartitionedCall/functional_6_1/resnet50_1/conv2_block2_3_bn_1/batchnorm/mul", "shape": [1, 1, 1, 256], "dtype": "float32", "quantization": {"dtype": "uint8", "min": -0.5444273668176988, "scale": 0.03402671042610617, "original_dtype": "float32"}}, {"name": "StatefulPartitionedCall/functional_6_1/resnet50_1/conv2_block2_3_bn_1/batchnorm/sub", "shape": [1, 1, 1, 256], "dtype": "float32", "quantization": {"dtype": "uint8", "min": -5.775520077873679, "scale": 0.04375393998389151, "original_dtype": "float32"}}, {"name": "StatefulPartitionedCall/functional_6_1/resnet50_1/conv2_block3_1_conv_1/convolution/ReadVariableOp", "shape": [1, 1, 256, 64], "dtype": "float32", "quantization": {"dtype": "uint8", "min": -0.20947832780725817, "scale": 0.001870342212564805, "original_dtype": "float32"}}, {"name": "StatefulPartitionedCall/functional_6_1/resnet50_1/conv2_block3_1_conv_1/Reshape", "shape": [1, 1, 1, 64], "dtype": "float32", "quantization": {"dtype": "uint8", "min": -5.5627230229523174e-09, "scale": 3.351037965633926e-11, "original_dtype": "float32"}}, {"name": "StatefulPartitionedCall/functional_6_1/resnet50_1/conv2_block3_1_bn_1/batchnorm/mul", "shape": [1, 1, 1, 64], "dtype": "float32", "quantization": {"dtype": "uint8", "min": 0.730690598487854, "scale": 0.6469039295233933, "original_dtype": "float32"}}, {"name": "StatefulPartitionedCall/functional_6_1/resnet50_1/conv2_block3_1_bn_1/batchnorm/sub", "shape": [1, 1, 1, 64], "dtype": "float32", "quantization": {"dtype": "uint8", "min": -4.586556041941924, "scale": 0.02548086689967735, "original_dtype": "float32"}}, {"name": "StatefulPartitionedCall/functional_6_1/resnet50_1/conv2_block3_2_conv_1/convolution/ReadVariableOp", "shape": [3, 3, 64, 64], "dtype": "float32", "quantization": {"dtype": "uint8", "min": -0.2186298033770393, "scale": 0.0016562863892199946, "original_dtype": "float32"}}, {"name": "StatefulPartitionedCall/functional_6_1/resnet50_1/conv2_block3_2_conv_1/Reshape", "shape": [1, 1, 1, 64], "dtype": "float32", "quantization": {"dtype": "uint8", "min": -2.8939339465099978e-09, "scale": 2.7301263646320733e-11, "original_dtype": "float32"}}, {"name": "StatefulPartitionedCall/functional_6_1/resnet50_1/conv2_block3_2_bn_1/batchnorm/mul", "shape": [1, 1, 1, 64], "dtype": "float32", "quantization": {"dtype": "uint8", "min": 1.0231090784072876, "scale": 0.008530938859079398, "original_dtype": "float32"}}, {"name": "StatefulPartitionedCall/functional_6_1/resnet50_1/conv2_block3_2_bn_1/batchnorm/sub", "shape": [1, 1, 1, 64], "dtype": "float32", "quantization": {"dtype": "uint8", "min": -0.9812707260543224, "scale": 0.012421148431067373, "original_dtype": "float32"}}, {"name": "StatefulPartitionedCall/functional_6_1/resnet50_1/conv2_block3_3_conv_1/convolution/ReadVariableOp", "shape": [1, 1, 64, 256], "dtype": "float32", "quantization": {"dtype": "uint8", "min": -0.27453192542580995, "scale": 0.002451177905587589, "original_dtype": "float32"}}, {"name": "StatefulPartitionedCall/functional_6_1/resnet50_1/conv2_block3_3_conv_1/Reshape", "shape": [1, 1, 1, 256], "dtype": "float32", "quantization": {"dtype": "uint8", "min": -3.323457908877003e-09, "scale": 3.106035428857012e-11, "original_dtype": "float32"}}, {"name": "StatefulPartitionedCall/functional_6_1/resnet50_1/conv2_block3_3_bn_1/batchnorm/mul", "shape": [1, 1, 1, 256], "dtype": "float32", "quantization": {"dtype": "uint8", "min": -0.6611283566437516, "scale": 0.0213267211820565, "original_dtype": "float32"}}, {"name": "StatefulPartitionedCall/functional_6_1/resnet50_1/conv2_block3_3_bn_1/batchnorm/sub", "shape": [1, 1, 1, 256], "dtype": "float32", "quantization": {"dtype": "uint8", "min": -3.2451979955037435, "scale": 0.02727057139078776, "original_dtype": "float32"}}, {"name": "StatefulPartitionedCall/functional_6_1/resnet50_1/conv3_block1_1_conv_1/convolution/ReadVariableOp", "shape": [1, 1, 256, 128], "dtype": "float32", "quantization": {"dtype": "uint8", "min": -0.3347030800931594, "scale": 0.002497784179799697, "original_dtype": "float32"}}, {"name": "StatefulPartitionedCall/functional_6_1/resnet50_1/conv3_block1_1_conv_1/Reshape", "shape": [1, 1, 1, 128], "dtype": "float32", "quantization": {"dtype": "uint8", "min": -1.4157892191946075e-09, "scale": 1.388028646269223e-11, "original_dtype": "float32"}}, {"name": "StatefulPartitionedCall/functional_6_1/resnet50_1/conv3_block1_1_bn_1/batchnorm/mul", "shape": [1, 1, 1, 128], "dtype": "float32", "quantization": {"dtype": "uint8", "min": 0.5130326151847839, "scale": 0.00933459716684678, "original_dtype": "float32"}}, {"name": "StatefulPartitionedCall/functional_6_1/resnet50_1/conv3_block1_1_bn_1/batchnorm/sub", "shape": [1, 1, 1, 128], "dtype": "float32", "quantization": {"dtype": "uint8", "min": -3.784094855364631, "scale": 0.02823951384600471, "original_dtype": "float32"}}, {"name": "StatefulPartitionedCall/functional_6_1/resnet50_1/conv3_block1_2_conv_1/convolution/ReadVariableOp", "shape": [3, 3, 128, 128], "dtype": "float32", "quantization": {"dtype": "uint8", "min": -0.3859000286635231, "scale": 0.0029914730904149075, "original_dtype": "float32"}}, {"name": "StatefulPartitionedCall/functional_6_1/resnet50_1/conv3_block1_2_conv_1/Reshape", "shape": [1, 1, 1, 128], "dtype": "float32", "quantization": {"dtype": "uint8", "min": -2.7730573009978564e-09, "scale": 1.8364617887403023e-11, "original_dtype": "float32"}}, {"name": "StatefulPartitionedCall/functional_6_1/resnet50_1/conv3_block1_2_bn_1/batchnorm/mul", "shape": [1, 1, 1, 128], "dtype": "float32", "quantization": {"dtype": "uint8", "min": 0.6310216188430786, "scale": 0.008375199168336157, "original_dtype": "float32"}}, {"name": "StatefulPartitionedCall/functional_6_1/resnet50_1/conv3_block1_2_bn_1/batchnorm/sub", "shape": [1, 1, 1, 128], "dtype": "float32", "quantization": {"dtype": "uint8", "min": -2.9620197258743586, "scale": 0.028757473066741344, "original_dtype": "float32"}}, {"name": "StatefulPartitionedCall/functional_6_1/resnet50_1/conv3_block1_3_conv_1/convolution/ReadVariableOp", "shape": [1, 1, 128, 512], "dtype": "float32", "quantization": {"dtype": "uint8", "min": -0.3719549863946204, "scale": 0.0031521609016493253, "original_dtype": "float32"}}, {"name": "StatefulPartitionedCall/functional_6_1/resnet50_1/conv3_block1_3_conv_1/Reshape", "shape": [1, 1, 1, 512], "dtype": "float32", "quantization": {"dtype": "uint8", "min": -4.430779130085868e-09, "scale": 3.3314128797638107e-11, "original_dtype": "float32"}}, {"name": "StatefulPartitionedCall/functional_6_1/resnet50_1/conv3_block1_3_bn_1/batchnorm/mul", "shape": [1, 1, 1, 512], "dtype": "float32", "quantization": {"dtype": "uint8", "min": -0.21417508668759289, "scale": 0.04283501733751858, "original_dtype": "float32"}}, {"name": "StatefulPartitionedCall/functional_6_1/resnet50_1/conv3_block1_3_bn_1/batchnorm/sub", "shape": [1, 1, 1, 512], "dtype": "float32", "quantization": {"dtype": "uint8", "min": -5.06094581566605, "scale": 0.03805222417794022, "original_dtype": "float32"}}, {"name": "StatefulPartitionedCall/functional_6_1/resnet50_1/conv3_block2_1_conv_1/convolution/ReadVariableOp", "shape": [1, 1, 512, 128], "dtype": "float32", "quantization": {"dtype": "uint8", "min": -0.16170316700841866, "scale": 0.0013939928190380918, "original_dtype": "float32"}}, {"name": "StatefulPartitionedCall/functional_6_1/resnet50_1/conv3_block2_1_conv_1/Reshape", "shape": [1, 1, 1, 128], "dtype": "float32", "quantization": {"dtype": "uint8", "min": -1.1120366318416315e-09, "scale": 8.298780834639042e-12, "original_dtype": "float32"}}, {"name": "StatefulPartitionedCall/functional_6_1/resnet50_1/conv3_block2_1_bn_1/batchnorm/mul", "shape": [1, 1, 1, 128], "dtype": "float32", "quantization": {"dtype": "uint8", "min": 0.5083019733428955, "scale": 1.3314931785359103, "original_dtype": "float32"}}, {"name": "StatefulPartitionedCall/functional_6_1/resnet50_1/conv3_block2_1_bn_1/batchnorm/sub", "shape": [1, 1, 1, 128], "dtype": "float32", "quantization": {"dtype": "uint8", "min": -3.2284947072758396, "scale": 0.019566634589550543, "original_dtype": "float32"}}, {"name": "StatefulPartitionedCall/functional_6_1/resnet50_1/conv3_block2_2_conv_1/convolution/ReadVariableOp", "shape": [3, 3, 128, 128], "dtype": "float32", "quantization": {"dtype": "uint8", "min": -0.17614675456402348, "scale": 0.0013869823194017597, "original_dtype": "float32"}}, {"name": "StatefulPartitionedCall/functional_6_1/resnet50_1/conv3_block2_2_conv_1/Reshape", "shape": [1, 1, 1, 128], "dtype": "float32", "quantization": {"dtype": "uint8", "min": -2.4091989797472247e-09, "scale": 1.9910735369811776e-11, "original_dtype": "float32"}}, {"name": "StatefulPartitionedCall/functional_6_1/resnet50_1/conv3_block2_2_bn_1/batchnorm/mul", "shape": [1, 1, 1, 128], "dtype": "float32", "quantization": {"dtype": "uint8", "min": 0.685935914516449, "scale": 0.016018705040800805, "original_dtype": "float32"}}, {"name": "StatefulPartitionedCall/functional_6_1/resnet50_1/conv3_block2_2_bn_1/batchnorm/sub", "shape": [1, 1, 1, 128], "dtype": "float32", "quantization": {"dtype": "uint8", "min": -2.6123141288757323, "scale": 0.017650771141052245, "original_dtype": "float32"}}, {"name": "StatefulPartitionedCall/functional_6_1/resnet50_1/conv3_block2_3_conv_1/convolution/ReadVariableOp", "shape": [1, 1, 128, 512], "dtype": "float32", "quantization": {"dtype": "uint8", "min": -0.34345717535299414, "scale": 0.0026624587236666213, "original_dtype": "float32"}}, {"name": "StatefulPartitionedCall/functional_6_1/resnet50_1/conv3_block2_3_conv_1/Reshape", "shape": [1, 1, 1, 512], "dtype": "float32", "quantization": {"dtype": "uint8", "min": -3.5183207484667423e-09, "scale": 2.9077030979063988e-11, "original_dtype": "float32"}}, {"name": "StatefulPartitionedCall/functional_6_1/resnet50_1/conv3_block2_3_bn_1/batchnorm/mul", "shape": [1, 1, 1, 512], "dtype": "float32", "quantization": {"dtype": "uint8", "min": -0.9880310612566331, "scale": 0.04704909815507777, "original_dtype": "float32"}}, {"name": "StatefulPartitionedCall/functional_6_1/resnet50_1/conv3_block2_3_bn_1/batchnorm/sub", "shape": [1, 1, 1, 512], "dtype": "float32", "quantization": {"dtype": "uint8", "min": -2.2022956922942516, "scale": 0.023428677577598422, "original_dtype": "float32"}}, {"name": "StatefulPartitionedCall/functional_6_1/resnet50_1/conv3_block3_1_conv_1/convolution/ReadVariableOp", "shape": [1, 1, 512, 128], "dtype": "float32", "quantization": {"dtype": "uint8", "min": -0.32981540747717314, "scale": 0.002725747169232836, "original_dtype": "float32"}}, {"name": "StatefulPartitionedCall/functional_6_1/resnet50_1/conv3_block3_1_conv_1/Reshape", "shape": [1, 1, 1, 128], "dtype": "float32", "quantization": {"dtype": "uint8", "min": -1.4134312038865405e-09, "scale": 1.0317016086763069e-11, "original_dtype": "float32"}}, {"name": "StatefulPartitionedCall/functional_6_1/resnet50_1/conv3_block3_1_bn_1/batchnorm/mul", "shape": [1, 1, 1, 128], "dtype": "float32", "quantization": {"dtype": "uint8", "min": 0.2306210845708847, "scale": 0.0175189533070022, "original_dtype": "float32"}}, {"name": "StatefulPartitionedCall/functional_6_1/resnet50_1/conv3_block3_1_bn_1/batchnorm/sub", "shape": [1, 1, 1, 128], "dtype": "float32", "quantization": {"dtype": "uint8", "min": -3.3906589582854627, "scale": 0.02338385488472733, "original_dtype": "float32"}}, {"name": "StatefulPartitionedCall/functional_6_1/resnet50_1/conv3_block3_2_conv_1/convolution/ReadVariableOp", "shape": [3, 3, 128, 128], "dtype": "float32", "quantization": {"dtype": "uint8", "min": -0.3317044903250302, "scale": 0.002764204086041918, "original_dtype": "float32"}}, {"name": "StatefulPartitionedCall/functional_6_1/resnet50_1/conv3_block3_2_conv_1/Reshape", "shape": [1, 1, 1, 128], "dtype": "float32", "quantization": {"dtype": "uint8", "min": -1.9635039877232655e-09, "scale": 1.7376141484276684e-11, "original_dtype": "float32"}}, {"name": "StatefulPartitionedCall/functional_6_1/resnet50_1/conv3_block3_2_bn_1/batchnorm/mul", "shape": [1, 1, 1, 128], "dtype": "float32", "quantization": {"dtype": "uint8", "min": 0.5375241637229919, "scale": 0.017347627761317236, "original_dtype": "float32"}}, {"name": "StatefulPartitionedCall/functional_6_1/resnet50_1/conv3_block3_2_bn_1/batchnorm/sub", "shape": [1, 1, 1, 128], "dtype": "float32", "quantization": {"dtype": "uint8", "min": -6.02630033493042, "scale": 0.029540687916325588, "original_dtype": "float32"}}, {"name": "StatefulPartitionedCall/functional_6_1/resnet50_1/conv3_block3_3_conv_1/convolution/ReadVariableOp", "shape": [1, 1, 128, 512], "dtype": "float32", "quantization": {"dtype": "uint8", "min": -0.28627208488829, "scale": 0.0020595114020740286, "original_dtype": "float32"}}, {"name": "StatefulPartitionedCall/functional_6_1/resnet50_1/conv3_block3_3_conv_1/Reshape", "shape": [1, 1, 1, 512], "dtype": "float32", "quantization": {"dtype": "uint8", "min": -5.5695632506829536e-09, "scale": 3.978259464773538e-11, "original_dtype": "float32"}}, {"name": "StatefulPartitionedCall/functional_6_1/resnet50_1/conv3_block3_3_bn_1/batchnorm/mul", "shape": [1, 1, 1, 512], "dtype": "float32", "quantization": {"dtype": "uint8", "min": -0.33277178301530724, "scale": 0.03697464255725636, "original_dtype": "float32"}}, {"name": "StatefulPartitionedCall/functional_6_1/resnet50_1/conv3_block3_3_bn_1/batchnorm/sub", "shape": [1, 1, 1, 512], "dtype": "float32", "quantization": {"dtype": "uint8", "min": -2.3494098943822523, "scale": 0.023731413074568206, "original_dtype": "float32"}}, {"name": "StatefulPartitionedCall/functional_6_1/resnet50_1/conv3_block4_1_conv_1/convolution/ReadVariableOp", "shape": [1, 1, 512, 128], "dtype": "float32", "quantization": {"dtype": "uint8", "min": -0.29754328073239794, "scale": 0.0025215532265457454, "original_dtype": "float32"}}, {"name": "StatefulPartitionedCall/functional_6_1/resnet50_1/conv3_block4_1_conv_1/Reshape", "shape": [1, 1, 1, 128], "dtype": "float32", "quantization": {"dtype": "uint8", "min": -1.4050708596613503e-09, "scale": 1.3775204506483827e-11, "original_dtype": "float32"}}, {"name": "StatefulPartitionedCall/functional_6_1/resnet50_1/conv3_block4_1_bn_1/batchnorm/mul", "shape": [1, 1, 1, 128], "dtype": "float32", "quantization": {"dtype": "uint8", "min": 0.5561687350273132, "scale": 0.005596594950732063, "original_dtype": "float32"}}, {"name": "StatefulPartitionedCall/functional_6_1/resnet50_1/conv3_block4_1_bn_1/batchnorm/sub", "shape": [1, 1, 1, 128], "dtype": "float32", "quantization": {"dtype": "uint8", "min": -3.1858535401961383, "scale": 0.017409035738776713, "original_dtype": "float32"}}, {"name": "StatefulPartitionedCall/functional_6_1/resnet50_1/conv3_block4_2_conv_1/convolution/ReadVariableOp", "shape": [3, 3, 128, 128], "dtype": "float32", "quantization": {"dtype": "uint8", "min": -0.2722874669467702, "scale": 0.0018908851871303485, "original_dtype": "float32"}}, {"name": "StatefulPartitionedCall/functional_6_1/resnet50_1/conv3_block4_2_conv_1/Reshape", "shape": [1, 1, 1, 128], "dtype": "float32", "quantization": {"dtype": "uint8", "min": -1.827881319507566e-09, "scale": 1.7083002986052018e-11, "original_dtype": "float32"}}, {"name": "StatefulPartitionedCall/functional_6_1/resnet50_1/conv3_block4_2_bn_1/batchnorm/mul", "shape": [1, 1, 1, 128], "dtype": "float32", "quantization": {"dtype": "uint8", "min": 0.7509974241256714, "scale": 0.006970955811294855, "original_dtype": "float32"}}, {"name": "StatefulPartitionedCall/functional_6_1/resnet50_1/conv3_block4_2_bn_1/batchnorm/sub", "shape": [1, 1, 1, 128], "dtype": "float32", "quantization": {"dtype": "uint8", "min": -1.2810771399853276, "scale": 0.011972683551264744, "original_dtype": "float32"}}, {"name": "StatefulPartitionedCall/functional_6_1/resnet50_1/conv3_block4_3_conv_1/convolution/ReadVariableOp", "shape": [1, 1, 128, 512], "dtype": "float32", "quantization": {"dtype": "uint8", "min": -0.277890652885624, "scale": 0.0021881153770521573, "original_dtype": "float32"}}, {"name": "StatefulPartitionedCall/functional_6_1/resnet50_1/conv3_block4_3_conv_1/Reshape", "shape": [1, 1, 1, 512], "dtype": "float32", "quantization": {"dtype": "uint8", "min": -1.5561917976469887e-09, "scale": 1.1442586747404328e-11, "original_dtype": "float32"}}, {"name": "StatefulPartitionedCall/functional_6_1/resnet50_1/conv3_block4_3_bn_1/batchnorm/mul", "shape": [1, 1, 1, 512], "dtype": "float32", "quantization": {"dtype": "uint8", "min": -0.4637919220269895, "scale": 0.023189596101349474, "original_dtype": "float32"}}, {"name": "StatefulPartitionedCall/functional_6_1/resnet50_1/conv3_block4_3_bn_1/batchnorm/sub", "shape": [1, 1, 1, 512], "dtype": "float32", "quantization": {"dtype": "uint8", "min": -3.1984313011169436, "scale": 0.026216650009155275, "original_dtype": "float32"}}, {"name": "StatefulPartitionedCall/functional_6_1/resnet50_1/conv4_block1_1_conv_1/convolution/ReadVariableOp", "shape": [1, 1, 512, 256], "dtype": "float32", "quantization": {"dtype": "uint8", "min": -0.23035293665586734, "scale": 0.0022364362782123044, "original_dtype": "float32"}}, {"name": "StatefulPartitionedCall/functional_6_1/resnet50_1/conv4_block1_1_conv_1/Reshape", "shape": [1, 1, 1, 256], "dtype": "float32", "quantization": {"dtype": "uint8", "min": -8.053483305073763e-10, "scale": 7.973745846607686e-12, "original_dtype": "float32"}}, {"name": "StatefulPartitionedCall/functional_6_1/resnet50_1/conv4_block1_1_bn_1/batchnorm/mul", "shape": [1, 1, 1, 256], "dtype": "float32", "quantization": {"dtype": "uint8", "min": 0.6399005055427551, "scale": 0.005260598659515381, "original_dtype": "float32"}}, {"name": "StatefulPartitionedCall/functional_6_1/resnet50_1/conv4_block1_1_bn_1/batchnorm/sub", "shape": [1, 1, 1, 256], "dtype": "float32", "quantization": {"dtype": "uint8", "min": -2.470308441274306, "scale": 0.01803144847645479, "original_dtype": "float32"}}, {"name": "StatefulPartitionedCall/functional_6_1/resnet50_1/conv4_block1_2_conv_1/convolution/ReadVariableOp", "shape": [3, 3, 256, 256], "dtype": "float32", "quantization": {"dtype": "uint8", "min": -0.2678064554929733, "scale": 0.0017503689901501524, "original_dtype": "float32"}}, {"name": "StatefulPartitionedCall/functional_6_1/resnet50_1/conv4_block1_2_conv_1/Reshape", "shape": [1, 1, 1, 256], "dtype": "float32", "quantization": {"dtype": "uint8", "min": -8.899644365682936e-10, "scale": 7.119715492546349e-12, "original_dtype": "float32"}}, {"name": "StatefulPartitionedCall/functional_6_1/resnet50_1/conv4_block1_2_bn_1/batchnorm/mul", "shape": [1, 1, 1, 256], "dtype": "float32", "quantization": {"dtype": "uint8", "min": 0.5133590698242188, "scale": 0.007618325364355948, "original_dtype": "float32"}}, {"name": "StatefulPartitionedCall/functional_6_1/resnet50_1/conv4_block1_2_bn_1/batchnorm/sub", "shape": [1, 1, 1, 256], "dtype": "float32", "quantization": {"dtype": "uint8", "min": -4.368341472102147, "scale": 0.032599563224642886, "original_dtype": "float32"}}, {"name": "StatefulPartitionedCall/functional_6_1/resnet50_1/conv4_block1_3_conv_1/convolution/ReadVariableOp", "shape": [1, 1, 256, 1024], "dtype": "float32", "quantization": {"dtype": "uint8", "min": -0.3343957216131921, "scale": 0.0028338620475694245, "original_dtype": "float32"}}, {"name": "StatefulPartitionedCall/functional_6_1/resnet50_1/conv4_block1_3_conv_1/Reshape", "shape": [1, 1, 1, 1024], "dtype": "float32", "quantization": {"dtype": "uint8", "min": -2.1736200813105665e-09, "scale": 1.5525857723646903e-11, "original_dtype": "float32"}}, {"name": "StatefulPartitionedCall/functional_6_1/resnet50_1/conv4_block1_3_bn_1/batchnorm/mul", "shape": [1, 1, 1, 1024], "dtype": "float32", "quantization": {"dtype": "uint8", "min": 0.962114155292511, "scale": 0.03206465548160029, "original_dtype": "float32"}}, {"name": "StatefulPartitionedCall/functional_6_1/resnet50_1/conv4_block1_3_bn_1/batchnorm/sub", "shape": [1, 1, 1, 1024], "dtype": "float32", "quantization": {"dtype": "uint8", "min": -2.46986769694908, "scale": 0.025998607336306104, "original_dtype": "float32"}}, {"name": "StatefulPartitionedCall/functional_6_1/resnet50_1/conv4_block2_1_conv_1/convolution/ReadVariableOp", "shape": [1, 1, 1024, 256], "dtype": "float32", "quantization": {"dtype": "uint8", "min": -0.19718687978445315, "scale": 0.0016998868946935617, "original_dtype": "float32"}}, {"name": "StatefulPartitionedCall/functional_6_1/resnet50_1/conv4_block2_1_conv_1/Reshape", "shape": [1, 1, 1, 256], "dtype": "float32", "quantization": {"dtype": "uint8", "min": -9.796627234927222e-10, "scale": 7.594284678238156e-12, "original_dtype": "float32"}}, {"name": "StatefulPartitionedCall/functional_6_1/resnet50_1/conv4_block2_1_bn_1/batchnorm/mul", "shape": [1, 1, 1, 256], "dtype": "float32", "quantization": {"dtype": "uint8", "min": 0.4423428475856781, "scale": 0.009872844756818286, "original_dtype": "float32"}}, {"name": "StatefulPartitionedCall/functional_6_1/resnet50_1/conv4_block2_1_bn_1/batchnorm/sub", "shape": [1, 1, 1, 256], "dtype": "float32", "quantization": {"dtype": "uint8", "min": -2.9063060124715165, "scale": 0.0238221804300944, "original_dtype": "float32"}}, {"name": "StatefulPartitionedCall/functional_6_1/resnet50_1/conv4_block2_2_conv_1/convolution/ReadVariableOp", "shape": [3, 3, 256, 256], "dtype": "float32", "quantization": {"dtype": "uint8", "min": -0.4356975546654533, "scale": 0.0024615681054545382, "original_dtype": "float32"}}, {"name": "StatefulPartitionedCall/functional_6_1/resnet50_1/conv4_block2_2_conv_1/Reshape", "shape": [1, 1, 1, 256], "dtype": "float32", "quantization": {"dtype": "uint8", "min": -1.1493380391205137e-09, "scale": 1.1158621739034114e-11, "original_dtype": "float32"}}, {"name": "StatefulPartitionedCall/functional_6_1/resnet50_1/conv4_block2_2_bn_1/batchnorm/mul", "shape": [1, 1, 1, 256], "dtype": "float32", "quantization": {"dtype": "uint8", "min": 0.7151491641998291, "scale": 0.018457997078989066, "original_dtype": "float32"}}, {"name": "StatefulPartitionedCall/functional_6_1/resnet50_1/conv4_block2_2_bn_1/batchnorm/sub", "shape": [1, 1, 1, 256], "dtype": "float32", "quantization": {"dtype": "uint8", "min": -2.6369644613826972, "scale": 0.021974703844855812, "original_dtype": "float32"}}, {"name": "StatefulPartitionedCall/functional_6_1/resnet50_1/conv4_block2_3_conv_1/convolution/ReadVariableOp", "shape": [1, 1, 256, 1024], "dtype": "float32", "quantization": {"dtype": "uint8", "min": -0.43688335886188584, "scale": 0.002874232624091354, "original_dtype": "float32"}}, {"name": "StatefulPartitionedCall/functional_6_1/resnet50_1/conv4_block2_3_conv_1/Reshape", "shape": [1, 1, 1, 1024], "dtype": "float32", "quantization": {"dtype": "uint8", "min": -2.149607874708395e-09, "scale": 1.7335547376680606e-11, "original_dtype": "float32"}}, {"name": "StatefulPartitionedCall/functional_6_1/resnet50_1/conv4_block2_3_bn_1/batchnorm/mul", "shape": [1, 1, 1, 1024], "dtype": "float32", "quantization": {"dtype": "uint8", "min": 1.09119713306427, "scale": 0.032978969929265044, "original_dtype": "float32"}}, {"name": "StatefulPartitionedCall/functional_6_1/resnet50_1/conv4_block2_3_bn_1/batchnorm/sub", "shape": [1, 1, 1, 1024], "dtype": "float32", "quantization": {"dtype": "uint8", "min": -2.5636091933530922, "scale": 0.020842351165472294, "original_dtype": "float32"}}, {"name": "StatefulPartitionedCall/functional_6_1/resnet50_1/conv4_block3_1_conv_1/convolution/ReadVariableOp", "shape": [1, 1, 1024, 256], "dtype": "float32", "quantization": {"dtype": "uint8", "min": -0.38602277437845867, "scale": 0.0028384027527827843, "original_dtype": "float32"}}, {"name": "StatefulPartitionedCall/functional_6_1/resnet50_1/conv4_block3_1_conv_1/Reshape", "shape": [1, 1, 1, 256], "dtype": "float32", "quantization": {"dtype": "uint8", "min": -1.0795026352120096e-09, "scale": 7.149024074251719e-12, "original_dtype": "float32"}}, {"name": "StatefulPartitionedCall/functional_6_1/resnet50_1/conv4_block3_1_bn_1/batchnorm/mul", "shape": [1, 1, 1, 256], "dtype": "float32", "quantization": {"dtype": "uint8", "min": 0.4435482919216156, "scale": 0.0068853832927404665, "original_dtype": "float32"}}, {"name": "StatefulPartitionedCall/functional_6_1/resnet50_1/conv4_block3_1_bn_1/batchnorm/sub", "shape": [1, 1, 1, 256], "dtype": "float32", "quantization": {"dtype": "uint8", "min": -3.337852826305464, "scale": 0.01907344472174551, "original_dtype": "float32"}}, {"name": "StatefulPartitionedCall/functional_6_1/resnet50_1/conv4_block3_2_conv_1/convolution/ReadVariableOp", "shape": [3, 3, 256, 256], "dtype": "float32", "quantization": {"dtype": "uint8", "min": -0.16150985839320164, "scale": 0.0016480597795224658, "original_dtype": "float32"}}, {"name": "StatefulPartitionedCall/functional_6_1/resnet50_1/conv4_block3_2_conv_1/Reshape", "shape": [1, 1, 1, 256], "dtype": "float32", "quantization": {"dtype": "uint8", "min": -2.574123590969988e-09, "scale": 1.541391371838316e-11, "original_dtype": "float32"}}, {"name": "StatefulPartitionedCall/functional_6_1/resnet50_1/conv4_block3_2_bn_1/batchnorm/mul", "shape": [1, 1, 1, 256], "dtype": "float32", "quantization": {"dtype": "uint8", "min": 1.2607637643814087, "scale": 0.013095567273158653, "original_dtype": "float32"}}, {"name": "StatefulPartitionedCall/functional_6_1/resnet50_1/conv4_block3_2_bn_1/batchnorm/sub", "shape": [1, 1, 1, 256], "dtype": "float32", "quantization": {"dtype": "uint8", "min": -2.6368041094611674, "scale": 0.018311139649035885, "original_dtype": "float32"}}, {"name": "StatefulPartitionedCall/functional_6_1/resnet50_1/conv4_block3_3_conv_1/convolution/ReadVariableOp", "shape": [1, 1, 256, 1024], "dtype": "float32", "quantization": {"dtype": "uint8", "min": -0.29339122421601244, "scale": 0.002173268327526018, "original_dtype": "float32"}}, {"name": "StatefulPartitionedCall/functional_6_1/resnet50_1/conv4_block3_3_conv_1/Reshape", "shape": [1, 1, 1, 1024], "dtype": "float32", "quantization": {"dtype": "uint8", "min": -2.0008092241831285e-09, "scale": 1.4820809068023174e-11, "original_dtype": "float32"}}, {"name": "StatefulPartitionedCall/functional_6_1/resnet50_1/conv4_block3_3_bn_1/batchnorm/mul", "shape": [1, 1, 1, 1024], "dtype": "float32", "quantization": {"dtype": "uint8", "min": 0.8231350183486938, "scale": 0.025899858568228927, "original_dtype": "float32"}}, {"name": "StatefulPartitionedCall/functional_6_1/resnet50_1/conv4_block3_3_bn_1/batchnorm/sub", "shape": [1, 1, 1, 1024], "dtype": "float32", "quantization": {"dtype": "uint8", "min": -2.1862025003807215, "scale": 0.014104532260520785, "original_dtype": "float32"}}, {"name": "StatefulPartitionedCall/functional_6_1/resnet50_1/conv4_block4_1_conv_1/convolution/ReadVariableOp", "shape": [1, 1, 1024, 256], "dtype": "float32", "quantization": {"dtype": "uint8", "min": -0.19677604933579762, "scale": 0.001910447080930074, "original_dtype": "float32"}}, {"name": "StatefulPartitionedCall/functional_6_1/resnet50_1/conv4_block4_1_conv_1/Reshape", "shape": [1, 1, 1, 256], "dtype": "float32", "quantization": {"dtype": "uint8", "min": -8.944988880318426e-10, "scale": 6.675364836058527e-12, "original_dtype": "float32"}}, {"name": "StatefulPartitionedCall/functional_6_1/resnet50_1/conv4_block4_1_bn_1/batchnorm/mul", "shape": [1, 1, 1, 256], "dtype": "float32", "quantization": {"dtype": "uint8", "min": 0.35452327132225037, "scale": 0.006441279135498346, "original_dtype": "float32"}}, {"name": "StatefulPartitionedCall/functional_6_1/resnet50_1/conv4_block4_1_bn_1/batchnorm/sub", "shape": [1, 1, 1, 256], "dtype": "float32", "quantization": {"dtype": "uint8", "min": -2.560516655211355, "scale": 0.014800674307580088, "original_dtype": "float32"}}, {"name": "StatefulPartitionedCall/functional_6_1/resnet50_1/conv4_block4_2_conv_1/convolution/ReadVariableOp", "shape": [3, 3, 256, 256], "dtype": "float32", "quantization": {"dtype": "uint8", "min": -0.20146164543488446, "scale": 0.0014598669959049598, "original_dtype": "float32"}}, {"name": "StatefulPartitionedCall/functional_6_1/resnet50_1/conv4_block4_2_conv_1/Reshape", "shape": [1, 1, 1, 256], "dtype": "float32", "quantization": {"dtype": "uint8", "min": -3.038002578915164e-09, "scale": 1.8753102338982496e-11, "original_dtype": "float32"}}, {"name": "StatefulPartitionedCall/functional_6_1/resnet50_1/conv4_block4_2_bn_1/batchnorm/mul", "shape": [1, 1, 1, 256], "dtype": "float32", "quantization": {"dtype": "uint8", "min": 0.9954960346221924, "scale": 0.013342592762965781, "original_dtype": "float32"}}, {"name": "StatefulPartitionedCall/functional_6_1/resnet50_1/conv4_block4_2_bn_1/batchnorm/sub", "shape": [1, 1, 1, 256], "dtype": "float32", "quantization": {"dtype": "uint8", "min": -3.570339801732232, "scale": 0.01994603241191191, "original_dtype": "float32"}}, {"name": "StatefulPartitionedCall/functional_6_1/resnet50_1/conv4_block4_3_conv_1/convolution/ReadVariableOp", "shape": [1, 1, 256, 1024], "dtype": "float32", "quantization": {"dtype": "uint8", "min": -0.2074162264664968, "scale": 0.0017429934997184604, "original_dtype": "float32"}}, {"name": "StatefulPartitionedCall/functional_6_1/resnet50_1/conv4_block4_3_conv_1/Reshape", "shape": [1, 1, 1, 1024], "dtype": "float32", "quantization": {"dtype": "uint8", "min": -3.2987080291714026e-09, "scale": 2.7955152789588158e-11, "original_dtype": "float32"}}, {"name": "StatefulPartitionedCall/functional_6_1/resnet50_1/conv4_block4_3_bn_1/batchnorm/mul", "shape": [1, 1, 1, 1024], "dtype": "float32", "quantization": {"dtype": "uint8", "min": -0.9300824326627394, "scale": 0.04043836663751041, "original_dtype": "float32"}}, {"name": "StatefulPartitionedCall/functional_6_1/resnet50_1/conv4_block4_3_bn_1/batchnorm/sub", "shape": [1, 1, 1, 1024], "dtype": "float32", "quantization": {"dtype": "uint8", "min": -2.4268911903979733, "scale": 0.016622542399986118, "original_dtype": "float32"}}, {"name": "StatefulPartitionedCall/functional_6_1/resnet50_1/conv4_block5_1_conv_1/convolution/ReadVariableOp", "shape": [1, 1, 1024, 256], "dtype": "float32", "quantization": {"dtype": "uint8", "min": -0.22377303137498744, "scale": 0.0020719725127313652, "original_dtype": "float32"}}, {"name": "StatefulPartitionedCall/functional_6_1/resnet50_1/conv4_block5_1_conv_1/Reshape", "shape": [1, 1, 1, 256], "dtype": "float32", "quantization": {"dtype": "uint8", "min": -1.2232517134301431e-09, "scale": 8.737512238786737e-12, "original_dtype": "float32"}}, {"name": "StatefulPartitionedCall/functional_6_1/resnet50_1/conv4_block5_1_bn_1/batchnorm/mul", "shape": [1, 1, 1, 256], "dtype": "float32", "quantization": {"dtype": "uint8", "min": 0.3376939594745636, "scale": 0.006115274218951954, "original_dtype": "float32"}}, {"name": "StatefulPartitionedCall/functional_6_1/resnet50_1/conv4_block5_1_bn_1/batchnorm/sub", "shape": [1, 1, 1, 256], "dtype": "float32", "quantization": {"dtype": "uint8", "min": -1.9245586348514931, "scale": 0.01318190845788694, "original_dtype": "float32"}}, {"name": "StatefulPartitionedCall/functional_6_1/resnet50_1/conv4_block5_2_conv_1/convolution/ReadVariableOp", "shape": [3, 3, 256, 256], "dtype": "float32", "quantization": {"dtype": "uint8", "min": -0.15137073993682862, "scale": 0.0014840268621257708, "original_dtype": "float32"}}, {"name": "StatefulPartitionedCall/functional_6_1/resnet50_1/conv4_block5_2_conv_1/Reshape", "shape": [1, 1, 1, 256], "dtype": "float32", "quantization": {"dtype": "uint8", "min": -2.388595816127599e-09, "scale": 1.7184142562069057e-11, "original_dtype": "float32"}}, {"name": "StatefulPartitionedCall/functional_6_1/resnet50_1/conv4_block5_2_bn_1/batchnorm/mul", "shape": [1, 1, 1, 256], "dtype": "float32", "quantization": {"dtype": "uint8", "min": 1.6754207611083984, "scale": 0.013023808423210593, "original_dtype": "float32"}}, {"name": "StatefulPartitionedCall/functional_6_1/resnet50_1/conv4_block5_2_bn_1/batchnorm/sub", "shape": [1, 1, 1, 256], "dtype": "float32", "quantization": {"dtype": "uint8", "min": -2.936549295163622, "scale": 0.016974273382448682, "original_dtype": "float32"}}, {"name": "StatefulPartitionedCall/functional_6_1/resnet50_1/conv4_block5_3_conv_1/convolution/ReadVariableOp", "shape": [1, 1, 256, 1024], "dtype": "float32", "quantization": {"dtype": "uint8", "min": -0.18096063014338998, "scale": 0.0017568993217804852, "original_dtype": "float32"}}, {"name": "StatefulPartitionedCall/functional_6_1/resnet50_1/conv4_block5_3_conv_1/Reshape", "shape": [1, 1, 1, 1024], "dtype": "float32", "quantization": {"dtype": "uint8", "min": -1.6026015077088953e-09, "scale": 1.2140920512946177e-11, "original_dtype": "float32"}}, {"name": "StatefulPartitionedCall/functional_6_1/resnet50_1/conv4_block5_3_bn_1/batchnorm/mul", "shape": [1, 1, 1, 1024], "dtype": "float32", "quantization": {"dtype": "uint8", "min": -0.026216598410232394, "scale": 0.026216598410232394, "original_dtype": "float32"}}, {"name": "StatefulPartitionedCall/functional_6_1/resnet50_1/conv4_block5_3_bn_1/batchnorm/sub", "shape": [1, 1, 1, 1024], "dtype": "float32", "quantization": {"dtype": "uint8", "min": -6.426103816312902, "scale": 0.03213051908156451, "original_dtype": "float32"}}, {"name": "StatefulPartitionedCall/functional_6_1/resnet50_1/conv4_block6_1_conv_1/convolution/ReadVariableOp", "shape": [1, 1, 1024, 256], "dtype": "float32", "quantization": {"dtype": "uint8", "min": -0.1543796660853367, "scale": 0.0018826788546992283, "original_dtype": "float32"}}, {"name": "StatefulPartitionedCall/functional_6_1/resnet50_1/conv4_block6_1_conv_1/Reshape", "shape": [1, 1, 1, 256], "dtype": "float32", "quantization": {"dtype": "uint8", "min": -9.067624533584836e-10, "scale": 8.395948642208182e-12, "original_dtype": "float32"}}, {"name": "StatefulPartitionedCall/functional_6_1/resnet50_1/conv4_block6_1_bn_1/batchnorm/mul", "shape": [1, 1, 1, 256], "dtype": "float32", "quantization": {"dtype": "uint8", "min": 0.38605695962905884, "scale": 0.005560835436278698, "original_dtype": "float32"}}, {"name": "StatefulPartitionedCall/functional_6_1/resnet50_1/conv4_block6_1_bn_1/batchnorm/sub", "shape": [1, 1, 1, 256], "dtype": "float32", "quantization": {"dtype": "uint8", "min": -1.7321167440975413, "scale": 0.010129337684780944, "original_dtype": "float32"}}, {"name": "StatefulPartitionedCall/functional_6_1/resnet50_1/conv4_block6_2_conv_1/convolution/ReadVariableOp", "shape": [3, 3, 256, 256], "dtype": "float32", "quantization": {"dtype": "uint8", "min": -0.2957013887517593, "scale": 0.002240162035998176, "original_dtype": "float32"}}, {"name": "StatefulPartitionedCall/functional_6_1/resnet50_1/conv4_block6_2_conv_1/Reshape", "shape": [1, 1, 1, 256], "dtype": "float32", "quantization": {"dtype": "uint8", "min": -2.173438400061001e-09, "scale": 1.6591132824893137e-11, "original_dtype": "float32"}}, {"name": "StatefulPartitionedCall/functional_6_1/resnet50_1/conv4_block6_2_bn_1/batchnorm/mul", "shape": [1, 1, 1, 256], "dtype": "float32", "quantization": {"dtype": "uint8", "min": 1.2488409280776978, "scale": 0.01549986250260297, "original_dtype": "float32"}}, {"name": "StatefulPartitionedCall/functional_6_1/resnet50_1/conv4_block6_2_bn_1/batchnorm/sub", "shape": [1, 1, 1, 256], "dtype": "float32", "quantization": {"dtype": "uint8", "min": -2.699382734298706, "scale": 0.017643024407181084, "original_dtype": "float32"}}, {"name": "StatefulPartitionedCall/functional_6_1/resnet50_1/conv4_block6_3_conv_1/convolution/ReadVariableOp", "shape": [1, 1, 256, 1024], "dtype": "float32", "quantization": {"dtype": "uint8", "min": -0.23272309799989066, "scale": 0.0020594964424769085, "original_dtype": "float32"}}, {"name": "StatefulPartitionedCall/functional_6_1/resnet50_1/conv4_block6_3_conv_1/Reshape", "shape": [1, 1, 1, 1024], "dtype": "float32", "quantization": {"dtype": "uint8", "min": -1.6230930273011647e-09, "scale": 1.2296159297736097e-11, "original_dtype": "float32"}}, {"name": "StatefulPartitionedCall/functional_6_1/resnet50_1/conv4_block6_3_bn_1/batchnorm/mul", "shape": [1, 1, 1, 1024], "dtype": "float32", "quantization": {"dtype": "uint8", "min": 0.15726229548454285, "scale": 0.028812971418979122, "original_dtype": "float32"}}, {"name": "StatefulPartitionedCall/functional_6_1/resnet50_1/conv4_block6_3_bn_1/batchnorm/sub", "shape": [1, 1, 1, 1024], "dtype": "float32", "quantization": {"dtype": "uint8", "min": -3.188778877258301, "scale": 0.020841692008224187, "original_dtype": "float32"}}, {"name": "StatefulPartitionedCall/functional_6_1/resnet50_1/conv5_block1_1_conv_1/convolution/ReadVariableOp", "shape": [1, 1, 1024, 512], "dtype": "float32", "quantization": {"dtype": "uint8", "min": -0.1832378489714043, "scale": 0.0020136027359494977, "original_dtype": "float32"}}, {"name": "StatefulPartitionedCall/functional_6_1/resnet50_1/conv5_block1_1_conv_1/Reshape", "shape": [1, 1, 1, 512], "dtype": "float32", "quantization": {"dtype": "uint8", "min": -8.944554743931455e-10, "scale": 6.933763367388725e-12, "original_dtype": "float32"}}, {"name": "StatefulPartitionedCall/functional_6_1/resnet50_1/conv5_block1_1_bn_1/batchnorm/mul", "shape": [1, 1, 1, 512], "dtype": "float32", "quantization": {"dtype": "uint8", "min": 0.5032241344451904, "scale": 0.005598503000595991, "original_dtype": "float32"}}, {"name": "StatefulPartitionedCall/functional_6_1/resnet50_1/conv5_block1_1_bn_1/batchnorm/sub", "shape": [1, 1, 1, 512], "dtype": "float32", "quantization": {"dtype": "uint8", "min": -2.353188281900742, "scale": 0.01705208899928074, "original_dtype": "float32"}}, {"name": "StatefulPartitionedCall/functional_6_1/resnet50_1/conv5_block1_2_conv_1/convolution/ReadVariableOp", "shape": [3, 3, 512, 512], "dtype": "float32", "quantization": {"dtype": "uint8", "min": -0.175647192141589, "scale": 0.0017564719214158899, "original_dtype": "float32"}}, {"name": "StatefulPartitionedCall/functional_6_1/resnet50_1/conv5_block1_2_conv_1/Reshape", "shape": [1, 1, 1, 512], "dtype": "float32", "quantization": {"dtype": "uint8", "min": -1.2710598743460783e-09, "scale": 1.0418523560213757e-11, "original_dtype": "float32"}}, {"name": "StatefulPartitionedCall/functional_6_1/resnet50_1/conv5_block1_2_bn_1/batchnorm/mul", "shape": [1, 1, 1, 512], "dtype": "float32", "quantization": {"dtype": "uint8", "min": 0.5798871517181396, "scale": 0.01019573772654814, "original_dtype": "float32"}}, {"name": "StatefulPartitionedCall/functional_6_1/resnet50_1/conv5_block1_2_bn_1/batchnorm/sub", "shape": [1, 1, 1, 512], "dtype": "float32", "quantization": {"dtype": "uint8", "min": -1.9722799226349474, "scale": 0.016166228874056946, "original_dtype": "float32"}}, {"name": "StatefulPartitionedCall/functional_6_1/resnet50_1/conv5_block1_3_conv_1/convolution/ReadVariableOp", "shape": [1, 1, 512, 2048], "dtype": "float32", "quantization": {"dtype": "uint8", "min": -0.33216635023846347, "scale": 0.0029924896417879592, "original_dtype": "float32"}}, {"name": "StatefulPartitionedCall/functional_6_1/resnet50_1/conv5_block1_3_conv_1/Reshape", "shape": [1, 1, 1, 2048], "dtype": "float32", "quantization": {"dtype": "uint8", "min": -2.086382093670701e-09, "scale": 1.846355835106815e-11, "original_dtype": "float32"}}, {"name": "StatefulPartitionedCall/functional_6_1/resnet50_1/conv5_block1_3_bn_1/batchnorm/mul", "shape": [1, 1, 1, 2048], "dtype": "float32", "quantization": {"dtype": "uint8", "min": 5.777525424957275, "scale": 0.04560189901613722, "original_dtype": "float32"}}, {"name": "StatefulPartitionedCall/functional_6_1/resnet50_1/conv5_block1_3_bn_1/batchnorm/sub", "shape": [1, 1, 1, 2048], "dtype": "float32", "quantization": {"dtype": "uint8", "min": -7.580870460061466, "scale": 0.05053913640040977, "original_dtype": "float32"}}, {"name": "StatefulPartitionedCall/functional_6_1/resnet50_1/conv5_block2_1_conv_1/convolution/ReadVariableOp", "shape": [1, 1, 2048, 512], "dtype": "float32", "quantization": {"dtype": "uint8", "min": -0.3146277455722585, "scale": 0.0034958638396917607, "original_dtype": "float32"}}, {"name": "StatefulPartitionedCall/functional_6_1/resnet50_1/conv5_block2_1_conv_1/Reshape", "shape": [1, 1, 1, 512], "dtype": "float32", "quantization": {"dtype": "uint8", "min": -3.441696196012057e-10, "scale": 2.8443770214975678e-12, "original_dtype": "float32"}}, {"name": "StatefulPartitionedCall/functional_6_1/resnet50_1/conv5_block2_1_bn_1/batchnorm/mul", "shape": [1, 1, 1, 512], "dtype": "float32", "quantization": {"dtype": "uint8", "min": 0.17604582011699677, "scale": 0.002614085171736923, "original_dtype": "float32"}}, {"name": "StatefulPartitionedCall/functional_6_1/resnet50_1/conv5_block2_1_bn_1/batchnorm/sub", "shape": [1, 1, 1, 512], "dtype": "float32", "quantization": {"dtype": "uint8", "min": -3.175045780107087, "scale": 0.018787253136728323, "original_dtype": "float32"}}, {"name": "StatefulPartitionedCall/functional_6_1/resnet50_1/conv5_block2_2_conv_1/convolution/ReadVariableOp", "shape": [3, 3, 512, 512], "dtype": "float32", "quantization": {"dtype": "uint8", "min": -0.21551366471776778, "scale": 0.001959215133797889, "original_dtype": "float32"}}, {"name": "StatefulPartitionedCall/functional_6_1/resnet50_1/conv5_block2_2_conv_1/Reshape", "shape": [1, 1, 1, 512], "dtype": "float32", "quantization": {"dtype": "uint8", "min": -2.057066611167316e-09, "scale": 2.1427777199659538e-11, "original_dtype": "float32"}}, {"name": "StatefulPartitionedCall/functional_6_1/resnet50_1/conv5_block2_2_bn_1/batchnorm/mul", "shape": [1, 1, 1, 512], "dtype": "float32", "quantization": {"dtype": "uint8", "min": 0.6094617247581482, "scale": 0.013734583994921517, "original_dtype": "float32"}}, {"name": "StatefulPartitionedCall/functional_6_1/resnet50_1/conv5_block2_2_bn_1/batchnorm/sub", "shape": [1, 1, 1, 512], "dtype": "float32", "quantization": {"dtype": "uint8", "min": -2.8829489979089473, "scale": 0.01768680366815305, "original_dtype": "float32"}}, {"name": "StatefulPartitionedCall/functional_6_1/resnet50_1/conv5_block2_3_conv_1/convolution/ReadVariableOp", "shape": [1, 1, 512, 2048], "dtype": "float32", "quantization": {"dtype": "uint8", "min": -0.20397867215614693, "scale": 0.001871363964735293, "original_dtype": "float32"}}, {"name": "StatefulPartitionedCall/functional_6_1/resnet50_1/conv5_block2_3_conv_1/Reshape", "shape": [1, 1, 1, 2048], "dtype": "float32", "quantization": {"dtype": "uint8", "min": -2.171347863167079e-09, "scale": 1.8718516061785164e-11, "original_dtype": "float32"}}, {"name": "StatefulPartitionedCall/functional_6_1/resnet50_1/conv5_block2_3_bn_1/batchnorm/mul", "shape": [1, 1, 1, 2048], "dtype": "float32", "quantization": {"dtype": "uint8", "min": 6.662595272064209, "scale": 0.0631217077666638, "original_dtype": "float32"}}, {"name": "StatefulPartitionedCall/functional_6_1/resnet50_1/conv5_block2_3_bn_1/batchnorm/sub", "shape": [1, 1, 1, 2048], "dtype": "float32", "quantization": {"dtype": "uint8", "min": -7.633897889829149, "scale": 0.04517099343094171, "original_dtype": "float32"}}, {"name": "StatefulPartitionedCall/functional_6_1/resnet50_1/conv5_block3_1_conv_1/convolution/ReadVariableOp", "shape": [1, 1, 2048, 512], "dtype": "float32", "quantization": {"dtype": "uint8", "min": -0.2866329568273881, "scale": 0.00314981271238888, "original_dtype": "float32"}}, {"name": "StatefulPartitionedCall/functional_6_1/resnet50_1/conv5_block3_1_conv_1/Reshape", "shape": [1, 1, 1, 512], "dtype": "float32", "quantization": {"dtype": "uint8", "min": -3.5730409186918165e-10, "scale": 3.0025553938586693e-12, "original_dtype": "float32"}}, {"name": "StatefulPartitionedCall/functional_6_1/resnet50_1/conv5_block3_1_bn_1/batchnorm/mul", "shape": [1, 1, 1, 512], "dtype": "float32", "quantization": {"dtype": "uint8", "min": 0.10243172198534012, "scale": 0.0032874770900782418, "original_dtype": "float32"}}, {"name": "StatefulPartitionedCall/functional_6_1/resnet50_1/conv5_block3_1_bn_1/batchnorm/sub", "shape": [1, 1, 1, 512], "dtype": "float32", "quantization": {"dtype": "uint8", "min": -2.7661453871166004, "scale": 0.012986598061580285, "original_dtype": "float32"}}, {"name": "StatefulPartitionedCall/functional_6_1/resnet50_1/conv5_block3_2_conv_1/convolution/ReadVariableOp", "shape": [3, 3, 512, 512], "dtype": "float32", "quantization": {"dtype": "uint8", "min": -0.14040529868182014, "scale": 0.0011143277673160328, "original_dtype": "float32"}}, {"name": "StatefulPartitionedCall/functional_6_1/resnet50_1/conv5_block3_2_conv_1/Reshape", "shape": [1, 1, 1, 512], "dtype": "float32", "quantization": {"dtype": "uint8", "min": -2.0589226010389105e-09, "scale": 1.4102209596156921e-11, "original_dtype": "float32"}}, {"name": "StatefulPartitionedCall/functional_6_1/resnet50_1/conv5_block3_2_bn_1/batchnorm/mul", "shape": [1, 1, 1, 512], "dtype": "float32", "quantization": {"dtype": "uint8", "min": 1.0308836698532104, "scale": 0.01465456953235701, "original_dtype": "float32"}}, {"name": "StatefulPartitionedCall/functional_6_1/resnet50_1/conv5_block3_2_bn_1/batchnorm/sub", "shape": [1, 1, 1, 512], "dtype": "float32", "quantization": {"dtype": "uint8", "min": -2.684987703959147, "scale": 0.015794045317406746, "original_dtype": "float32"}}, {"name": "StatefulPartitionedCall/functional_6_1/resnet50_1/conv5_block3_3_conv_1/convolution/ReadVariableOp", "shape": [1, 1, 512, 2048], "dtype": "float32", "quantization": {"dtype": "uint8", "min": -0.13234999109716974, "scale": 0.0016967947576560225, "original_dtype": "float32"}}, {"name": "StatefulPartitionedCall/functional_6_1/resnet50_1/conv5_block3_3_conv_1/Reshape", "shape": [1, 1, 1, 2048], "dtype": "float32", "quantization": {"dtype": "uint8", "min": -3.397770647845946e-09, "scale": 2.4097664169120186e-11, "original_dtype": "float32"}}, {"name": "StatefulPartitionedCall/functional_6_1/resnet50_1/conv5_block3_3_bn_1/batchnorm/mul", "shape": [1, 1, 1, 2048], "dtype": "float32", "quantization": {"dtype": "uint8", "min": 4.972091197967529, "scale": 0.07532674939024682, "original_dtype": "float32"}}, {"name": "StatefulPartitionedCall/functional_6_1/resnet50_1/conv5_block3_3_bn_1/batchnorm/sub", "shape": [1, 1, 1, 2048], "dtype": "float32", "quantization": {"dtype": "uint8", "min": -5.0871182890499345, "scale": 0.029236312006034104, "original_dtype": "float32"}}, {"name": "StatefulPartitionedCall/functional_6_1/global_average_pooling2d_6_1/Mean/reduction_indices", "shape": [2], "dtype": "int32"}, {"name": "StatefulPartitionedCall/functional_6_1/dense_9_1/Cast/ReadVariableOp", "shape": [2048, 3], "dtype": "float32", "quantization": {"dtype": "uint8", "min": -0.09680550238665413, "scale": 0.0008067125198887844, "original_dtype": "float32"}}, {"name": "StatefulPartitionedCall/functional_6_1/dense_9_1/Add/ReadVariableOp", "shape": [3], "dtype": "float32", "quantization": {"dtype": "uint8", "min": -0.003401152140406125, "scale": 2.412164638585904e-05, "original_dtype": "float32"}}]}]}